…
    col_rotate {
      rand_type: "uniform_bernoulli"
      exp: false
      mean: 0
      spread: 1
      prob: 1
    }
    crop_width: 768
    crop_height: 384
    chromatic_eigvec: 0.51
    chromatic_eigvec: 0.56
    chromatic_eigvec: 0.65
    chromatic_eigvec: 0.79
    chromatic_eigvec: 0.01
    chromatic_eigvec: -0.62
    chromatic_eigvec: 0.35
    chromatic_eigvec: -0.83
    chromatic_eigvec: 0.44
    noise {
      rand_type: "uniform_bernoulli"
      exp: false
      mean: 0.03
      spread: 0.03
      prob: 1
    }
  }
}
layer {
  name: "aug_params1"
  type: "GenerateAugmentationParameters"
  bottom: "blob6"
  bottom: "blob3"
  bottom: "img0_aug"
  top: "blob7"
  coeff_schedule_param {
    half_life: 50000
    initial_coeff: 0.5
    final_coeff: 1
  }
  augmentation_param {
    augment_during_test: false
    translate {
      rand_type: "gaussian_bernoulli"
      exp: false
      mean: 0
      spread: 0.03
      prob: 1
    }
    rotate {
      rand_type: "gaussian_bernoulli"
      exp: false
      mean: 0
      spread: 0.03
      prob: 1
    }
    zoom {
      rand_type: "gaussian_bernoulli"
      exp: true
      mean: 0
      spread: 0.03
      prob: 1
    }
    gamma {
      rand_type: "gaussian_bernoulli"
      exp: true
      mean: 0
      spread: 0.02
      prob: 1
    }
    brightness {
      rand_type: "gaussian_bernoulli"
      exp: false
      mean: 0
      spread: 0.02
      prob: 1
    }
    contrast {
      rand_type: "gaussian_bernoulli"
      exp: true
      mean: 0
      spread: 0.02
      prob: 1
    }
    color {
      rand_type: "gaussian_bernoulli"
      exp: true
      mean: 0
      spread: 0.02
      prob: 1
    }
  }
}
layer {
  name: "img1s_aug"
  type: "DataAugmentation"
  bottom: "blob4"
  bottom: "blob7"
  top: "img1_aug"
  augmentation_param {
    max_multiplier: 1
    augment_during_test: false
    recompute_mean: 1000
    mean_per_pixel: false
    crop_width: 768
    crop_height: 384
    chromatic_eigvec: 0.51
    chromatic_eigvec: 0.56
    chromatic_eigvec: 0.65
    chromatic_eigvec: 0.79
    chromatic_eigvec: 0.01
    chromatic_eigvec: -0.62
    chromatic_eigvec: 0.35
    chromatic_eigvec: -0.83
    chromatic_eigvec: 0.44
  }
}
layer {
  name: "FlowAugmentation1"
  type: "FlowAugmentation"
  bottom: "blob2"
  bottom: "blob6"
  bottom: "blob7"
  top: "flow_gt_aug"
  augmentation_param {
    crop_width: 768
    crop_height: 384
  }
}
layer {
  name: "Concat1"
  type: "Concat"
  bottom: "img0_aug"
  bottom: "img1_aug"
  top: "blob10"
  concat_param {
    axis: 1
  }
}
layer {
  name: "Eltwise3"
  type: "Eltwise"
  bottom: "flow_gt_aug"
  top: "blob11"
  eltwise_param {
    operation: SUM
    coeff: 0.05
  }
}
layer {
  name: "conv1"
  type: "Convolution"
  bottom: "blob10"
  top: "blob12"
  param {
    lr_mult: 0
    decay_mult: 0
  }
  param {
    lr_mult: 0
    decay_mult: 0
  }
  convolution_param {
    num_output: 24
    pad: 3
    kernel_size: 7
    stride: 2
    weight_filler {
      type: "msra"
    }
    bias_filler {
      type: "constant"
    }
    engine: CUDNN
  }
}
layer {
  name: "ReLU1"
  type: "ReLU"
  bottom: "blob12"
  top: "blob12"
  relu_param {
    negative_slope: 0.1
    engine: CUDNN
  }
}
layer {
  name: "conv2"
  type: "Convolution"
  bottom: "blob12"
  top: "blob13"
  param {
    lr_mult: 0
    decay_mult: 0
  }
  param {
    lr_mult: 0
    decay_mult: 0
  }
  convolution_param {
    num_output: 48
    pad: 2
    kernel_size: 5
    stride: 2
    weight_filler {
      type: "msra"
    }
    bias_filler {
      type: "constant"
    }
    engine: CUDNN
  }
}
layer {
  name: "ReLU2"
  type: "ReLU"
  bottom: "blob13"
  top: "blob13"
  relu_param {
    negative_slope: 0.1
    engine: CUDNN
  }
}
layer {
  name: "conv3"
  type: "Convolution"
  bottom: "blob13"
  top: "blob14"
  param {
    lr_mult: 0
    decay_mult: 0
  }
  param {
    lr_mult: 0
    decay_mult: 0
  }
  convolution_param {
    num_output: 96
    pad: 2
    kernel_size: 5
    stride: 2
    weight_filler {
      type: "msra"
    }
    bias_filler {
      type: "constant"
    }
    engine: CUDNN
  }
}
layer {
  name: "ReLU3"
  type: "ReLU"
  bottom: "blob14"
  top: "blob14"
  relu_param {
    negative_slope: 0.1
    engine: CUDNN
  }
}
layer {
  name: "conv3_1"
  type: "Convolution"
  bottom: "blob14"
  top: "blob15"
  param {
    lr_mult: 0
    decay_mult: 0
  }
  param {
    lr_mult: 0
    decay_mult: 0
  }
  convolution_param {
    num_output: 96
    pad: 1
    kernel_size: 3
    stride: 1
    weight_filler {
      type: "msra"
    }
    bias_filler {
      type: "constant"
    }
    engine: CUDNN
  }
}
layer {
  name: "ReLU4"
  type: "ReLU"
  bottom: "blob15"
  top: "blob15"
  relu_param {
    negative_slope: 0.1
    engine: CUDNN
  }
}
layer {
  name: "conv4"
  type: "Convolution"
  bottom: "blob15"
  top: "blob16"
  param {
    lr_mult: 0
    decay_mult: 0
  }
  param {
    lr_mult: 0
    decay_mult: 0
  }
  convolution_param {
    num_output: 192
    pad: 1
    kernel_size: 3
    stride: 2
    weight_filler {
      type: "msra"
    }
    bias_filler {
      type: "constant"
    }
    engine: CUDNN
  }
}
layer {
  name: "ReLU5"
  type: "ReLU"
  bottom: "blob16"
  top: "blob16"
  relu_param {
    negative_slope: 0.1
    engine: CUDNN
  }
}
layer {
  name: "conv4_1"
  type: "Convolution"
  bottom: "blob16"
  top: "blob17"
  param {
    lr_mult: 0
    decay_mult: 0
  }
  param {
    lr_mult: 0
    decay_mult: 0
  }
  convolution_param {
    num_output: 192
    pad: 1
    kernel_size: 3
    stride: 1
    weight_filler {
      type: "msra"
    }
    bias_filler {
      type: "constant"
    }
    engine: CUDNN
  }
}
layer {
  name: "ReLU6"
  type: "ReLU"
  bottom: "blob17"
  top: "blob17"
  relu_param {
    negative_slope: 0.1
    engine: CUDNN
  }
}
layer {
  name: "conv5"
  type: "Convolution"
  bottom: "blob17"
  top: "blob18"
  param {
    lr_mult: 0
    decay_mult: 0
  }
  param {
    lr_mult: 0
    decay_mult: 0
  }
  convolution_param {
    num_output: 192
    pad: 1
    kernel_size: 3
    stride: 2
    weight_filler {
      type: "msra"
    }
    bias_filler {
      type: "constant"
    }
    engine: CUDNN
  }
}
layer {
  name: "ReLU7"
  type: "ReLU"
  bottom: "blob18"
  top: "blob18"
  relu_param {
    negative_slope: 0.1
    engine: CUDNN
  }
}
layer {
  name: "conv5_1"
  type: "Convolution"
  bottom: "blob18"
  top: "blob19"
  param {
    lr_mult: 0
    decay_mult: 0
  }
  param {
    lr_mult: 0
    decay_mult: 0
  }
  convolution_param {
    num_output: 192
    pad: 1
    kernel_size: 3
    stride: 1
    weight_filler {
      type: "msra"
    }
    bias_filler {
      type: "constant"
    }
    engine: CUDNN
  }
}
layer {
  name: "ReLU8"
  type: "ReLU"
  bottom: "blob19"
  top: "blob19"
  relu_param {
    negative_slope: 0.1
    engine: CUDNN
  }
}
layer {
  name: "conv6"
  type: "Convolution"
  bottom: "blob19"
  top: "blob20"
  param {
    lr_mult: 0
    decay_mult: 0
  }
  param {
    lr_mult: 0
    decay_mult: 0
  }
  convolution_param {
    num_output: 384
    pad: 1
    kernel_size: 3
    stride: 2
    weight_filler {
      type: "msra"
    }
    bias_filler {
      type: "constant"
    }
    engine: CUDNN
  }
}
layer {
  name: "ReLU9"
  type: "ReLU"
  bottom: "blob20"
  top: "blob20"
  relu_param {
    negative_slope: 0.1
    engine: CUDNN
  }
}
layer {
  name: "conv6_1"
  type: "Convolution"
  bottom: "blob20"
  top: "blob21"
  param {
    lr_mult: 0
    decay_mult: 0
  }
  param {
    lr_mult: 0
    decay_mult: 0
  }
  convolution_param {
    num_output: 384
    pad: 1
    kernel_size: 3
    stride: 1
    weight_filler {
      type: "msra"
    }
    bias_filler {
      type: "constant"
    }
    engine: CUDNN
  }
}
layer {
  name: "ReLU10"
  type: "ReLU"
  bottom: "blob21"
  top: "blob21"
  relu_param {
    negative_slope: 0.1
    engine: CUDNN
  }
}
layer {
  name: "predict_conv6"
  type: "Convolution"
  bottom: "blob21"
  top: "blob22"
  param {
    lr_mult: 0
    decay_mult: 0
  }
  param {
    lr_mult: 0
    decay_mult: 0
  }
  convolution_param {
    num_output: 2
    pad: 1
    kernel_size: 3
    stride: 1
    weight_filler {
      type: "msra"
    }
    bias_filler {
      type: "constant"
    }
    engine: CUDNN
  }
}
layer {
  name: "deconv5"
  type: "Deconvolution"
  bottom: "blob21"
  top: "blob23"
  param {
    lr_mult: 0
    decay_mult: 0
  }
  param {
    lr_mult: 0
    decay_mult: 0
  }
  convolution_param {
    num_output: 192
    pad: 1
    kernel_size: 4
    stride: 2
    weight_filler {
      type: "msra"
    }
    bias_filler {
      type: "constant"
    }
    engine: CUDNN
  }
}
layer {
  name: "ReLU11"
  type: "ReLU"
  bottom: "blob23"
  top: "blob23"
  relu_param {
    negative_slope: 0.1
    engine: CUDNN
  }
}
layer {
  name: "upsample_flow6to5"
  type: "Deconvolution"
  bottom: "blob22"
  top: "blob24"
  param {
    lr_mult: 0
    decay_mult: 0
  }
  param {
    lr_mult: 0
    decay_mult: 0
  }
  convolution_param {
    num_output: 2
    pad: 1
    kernel_size: 4
    stride: 2
    weight_filler {
      type: "msra"
    }
    bias_filler {
      type: "constant"
    }
    engine: CUDNN
  }
}
layer {
  name: "Concat2"
  type: "Concat"
  bottom: "blob19"
  bottom: "blob23"
  bottom: "blob24"
  top: "blob25"
}
layer {
  name: "predict_conv5"
  type: "Convolution"
  bottom: "blob25"
  top: "blob26"
  param {
    lr_mult: 0
    decay_mult: 0
  }
  param {
    lr_mult: 0
    decay_mult: 0
  }
  convolution_param {
    num_output: 2
    pad: 1
    kernel_size: 3
    stride: 1
    weight_filler {
      type: "msra"
    }
    bias_filler {
      type: "constant"
    }
    engine: CUDNN
  }
}
layer {
  name: "deconv4"
  type: "Deconvolution"
  bottom: "blob25"
  top: "blob27"
  param {
    lr_mult: 0
    decay_mult: 0
  }
  param {
    lr_mult: 0
    decay_mult: 0
  }
  convolution_param {
    num_output: 96
    pad: 1
    kernel_size: 4
    stride: 2
    weight_filler {
      type: "msra"
    }
    bias_filler {
      type: "constant"
    }
    engine: CUDNN
  }
}
layer {
  name: "ReLU12"
  type: "ReLU"
  bottom: "blob27"
  top: "blob27"
  relu_param {
    negative_slope: 0.1
    engine: CUDNN
  }
}
layer {
  name: "upsample_flow5to4"
  type: "Deconvolution"
  bottom: "blob26"
  top: "blob28"
  param {
    lr_mult: 0
    decay_mult: 0
  }
  param {
    lr_mult: 0
    decay_mult: 0
  }
  convolution_param {
    num_output: 2
    pad: 1
    kernel_size: 4
    stride: 2
    weight_filler {
      type: "msra"
    }
    bias_filler {
      type: "constant"
    }
    engine: CUDNN
  }
}
layer {
  name: "Concat3"
  type: "Concat"
  bottom: "blob17"
  bottom: "blob27"
  bottom: "blob28"
  top: "blob29"
}
layer {
  name: "predict_conv4"
  type: "Convolution"
  bottom: "blob29"
  top: "blob30"
  param {
    lr_mult: 0
    decay_mult: 0
  }
  param {
    lr_mult: 0
    decay_mult: 0
  }
  convolution_param {
    num_output: 2
    pad: 1
    kernel_size: 3
    stride: 1
    weight_filler {
      type: "msra"
    }
    bias_filler {
      type: "constant"
    }
    engine: CUDNN
  }
}
layer {
  name: "deconv3"
  type: "Deconvolution"
  bottom: "blob29"
  top: "blob31"
  param {
    lr_mult: 0
    decay_mult: 0
  }
  param {
    lr_mult: 0
    decay_mult: 0
  }
  convolution_param {
    num_output: 48
    pad: 1
    kernel_size: 4
    stride: 2
    weight_filler {
      type: "msra"
    }
    bias_filler {
      type: "constant"
    }
    engine: CUDNN
  }
}
layer {
  name: "ReLU13"
  type: "ReLU"
  bottom: "blob31"
  top: "blob31"
  relu_param {
    negative_slope: 0.1
    engine: CUDNN
  }
}
layer {
  name: "upsample_flow4to3"
  type: "Deconvolution"
  bottom: "blob30"
  top: "blob32"
  param {
    lr_mult: 0
    decay_mult: 0
  }
  param {
    lr_mult: 0
    decay_mult: 0
  }
  convolution_param {
    num_output: 2
    pad: 1
    kernel_size: 4
    stride: 2
    weight_filler {
      type: "msra"
    }
    bias_filler {
      type: "constant"
    }
    engine: CUDNN
  }
}
layer {
  name: "Concat4"
  type: "Concat"
  bottom: "blob15"
  bottom: "blob31"
  bottom: "blob32"
  top: "blob33"
}
layer {
  name: "predict_conv3"
  type: "Convolution"
  bottom: "blob33"
  top: "blob34"
  param {
    lr_mult: 0
    decay_mult: 0
  }
  param {
    lr_mult: 0
    decay_mult: 0
  }
  convolution_param {
    num_output: 2
    pad: 1
    kernel_size: 3
    stride: 1
    weight_filler {
      type: "msra"
    }
    bias_filler {
      type: "constant"
    }
    engine: CUDNN
  }
}
layer {
  name: "deconv2"
  type: "Deconvolution"
  bottom: "blob33"
  top: "blob35"
  param {
    lr_mult: 0
    decay_mult: 0
  }
  param {
    lr_mult: 0
    decay_mult: 0
  }
  convolution_param {
    num_output: 24
    pad: 1
    kernel_size: 4
    stride: 2
    weight_filler {
      type: "msra"
    }
    bias_filler {
      type: "constant"
    }
    engine: CUDNN
  }
}
layer {
  name: "ReLU14"
  type: "ReLU"
  bottom: "blob35"
  top: "blob35"
  relu_param {
    negative_slope: 0.1
    engine: CUDNN
  }
}
layer {
  name: "upsample_flow3to2"
  type: "Deconvolution"
  bottom: "blob34"
  top: "blob36"
  param {
    lr_mult: 0
    decay_mult: 0
  }
  param {
    lr_mult: 0
    decay_mult: 0
  }
  convolution_param {
    num_output: 2
    pad: 1
    kernel_size: 4
    stride: 2
    weight_filler {
      type: "msra"
    }
    bias_filler {
      type: "constant"
    }
    engine: CUDNN
  }
}
layer {
  name: "Concat5"
  type: "Concat"
  bottom: "blob13"
  bottom: "blob35"
  bottom: "blob36"
  top: "blob37"
}
layer {
  name: "predict_conv2"
  type: "Convolution"
  bottom: "blob37"
  top: "blob38"
  param {
    lr_mult: 0
    decay_mult: 0
  }
  param {
    lr_mult: 0
    decay_mult: 0
  }
  convolution_param {
    num_output: 2
    pad: 1
    kernel_size: 3
    stride: 1
    weight_filler {
      type: "msra"
    }
    bias_filler {
      type: "constant"
    }
    engine: CUDNN
  }
}
layer {
  name: "Eltwise4"
  type: "Eltwise"
  bottom: "blob38"
  top: "blob39"
  eltwise_param {
    operation: SUM
    coeff: 20
  }
}
layer {
  name: "Accum1"
  type: "Accum"
  bottom: "blob39"
  bottom: "img0_aug"
  top: "blob40"
  accum_param {
    have_reference: true
  }
}
layer {
  name: "FlowWarp1"
  type: "FlowWarp"
  bottom: "img1_aug"
  bottom: "blob40"
  top: "blob41"
}
layer {
  name: "Eltwise5"
  type: "Eltwise"
  bottom: "img0_aug"
  bottom: "blob41"
  top: "blob42"
  eltwise_param {
    operation: SUM
    coeff: 1
    coeff: -1
  }
}
layer {
  name: "ChannelNorm1"
  type: "ChannelNorm"
  bottom: "blob42"
  top: "blob43"
}
layer {
  name: "Eltwise6"
  type: "Eltwise"
  bottom: "blob40"
  top: "blob44"
  eltwise_param {
    operation: SUM
    coeff: 0.05
  }
}
layer {
  name: "Concat6"
  type: "Concat"
  bottom: "img0_aug"
  bottom: "img1_aug"
  bottom: "blob41"
  bottom: "blob44"
  bottom: "blob43"
  top: "blob45"
  concat_param {
    axis: 1
  }
}
layer {
  name: "Eltwise7"
  type: "Eltwise"
  bottom: "flow_gt_aug"
  top: "blob46"
  eltwise_param {
    operation: SUM
    coeff: 0.05
  }
}
layer {
  name: "net2_conv1"
  type: "Convolution"
  bottom: "blob45"
  top: "blob47"
  param {
    lr_mult: 1
    decay_mult: 1
  }
  param {
    lr_mult: 1
    decay_mult: 0
  }
  convolution_param {
    num_output: 24
    pad: 3
    kernel_size: 7
    stride: 2
    weight_filler {
      type: "msra"
    }
    bias_filler {
      type: "constant"
    }
    engine: CUDNN
  }
}
layer {
  name: "ReLU15"
  type: "ReLU"
  bottom: "blob47"
  top: "blob47"
  relu_param {
    negative_slope: 0.1
    engine: CUDNN
  }
}
layer {
  name: "net2_conv2"
  type: "Convolution"
  bottom: "blob47"
  top: "blob48"
  param {
    lr_mult: 1
    decay_mult: 1
  }
  param {
    lr_mult: 1
    decay_mult: 0
  }
  convolution_param {
    num_output: 48
    pad: 2
    kernel_size: 5
    stride: 2
    weight_filler {
      type: "msra"
    }
    bias_filler {
      type: "constant"
    }
    engine: CUDNN
  }
}
layer {
  name: "ReLU16"
  type: "ReLU"
  bottom: "blob48"
  top: "blob48"
  relu_param {
    negative_slope: 0.1
    engine: CUDNN
  }
}
layer {
  name: "net2_conv3"
  type: "Convolution"
  bottom: "blob48"
  top: "blob49"
  param {
    lr_mult: 1
    decay_mult: 1
  }
  param {
    lr_mult: 1
    decay_mult: 0
  }
  convolution_param {
    num_output: 96
    pad: 2
    kernel_size: 5
    stride: 2
    weight_filler {
      type: "msra"
    }
    bias_filler {
      type: "constant"
    }
    engine: CUDNN
  }
}
layer {
  name: "ReLU17"
  type: "ReLU"
  bottom: "blob49"
  top: "blob49"
  relu_param {
    negative_slope: 0.1
    engine: CUDNN
  }
}
layer {
  name: "net2_conv3_1"
  type: "Convolution"
  bottom: "blob49"
  top: "blob50"
  param {
    lr_mult: 1
    decay_mult: 1
  }
  param {
    lr_mult: 1
    decay_mult: 0
  }
  convolution_param {
    num_output: 96
    pad: 1
    kernel_size: 3
    stride: 1
    weight_filler {
      type: "msra"
    }
    bias_filler {
      type: "constant"
    }
    engine: CUDNN
  }
}
layer {
  name: "ReLU18"
  type: "ReLU"
  bottom: "blob50"
  top: "blob50"
  relu_param {
    negative_slope: 0.1
    engine: CUDNN
  }
}
layer {
  name: "net2_conv4"
  type: "Convolution"
  bottom: "blob50"
  top: "blob51"
  param {
    lr_mult: 1
    decay_mult: 1
  }
  param {
    lr_mult: 1
    decay_mult: 0
  }
  convolution_param {
    num_output: 192
    pad: 1
    kernel_size: 3
    stride: 2
    weight_filler {
      type: "msra"
    }
    bias_filler {
      type: "constant"
    }
    engine: CUDNN
  }
}
layer {
  name: "ReLU19"
  type: "ReLU"
  bottom: "blob51"
  top: "blob51"
  relu_param {
    negative_slope: 0.1
    engine: CUDNN
  }
}
layer {
  name: "net2_conv4_1"
  type: "Convolution"
  bottom: "blob51"
  top: "blob52"
  param {
    lr_mult: 1
    decay_mult: 1
  }
  param {
    lr_mult: 1
    decay_mult: 0
  }
  convolution_param {
    num_output: 192
    pad: 1
    kernel_size: 3
    stride: 1
    weight_filler {
      type: "msra"
    }
    bias_filler {
      type: "constant"
    }
    engine: CUDNN
  }
}
layer {
  name: "ReLU20"
  type: "ReLU"
  bottom: "blob52"
  top: "blob52"
  relu_param {
    negative_slope: 0.1
    engine: CUDNN
  }
}
layer {
  name: "net2_conv5"
  type: "Convolution"
  bottom: "blob52"
  top: "blob53"
  param {
    lr_mult: 1
    decay_mult: 1
  }
  param {
    lr_mult: 1
    decay_mult: 0
  }
  convolution_param {
    num_output: 192
    pad: 1
    kernel_size: 3
    stride: 2
    weight_filler {
      type: "msra"
    }
    bias_filler {
      type: "constant"
    }
    engine: CUDNN
  }
}
layer {
  name: "ReLU21"
  type: "ReLU"
  bottom: "blob53"
  top: "blob53"
  relu_param {
    negative_slope: 0.1
    engine: CUDNN
  }
}
layer {
  name: "net2_conv5_1"
  type: "Convolution"
  bottom: "blob53"
  top: "blob54"
  param {
    lr_mult: 1
    decay_mult: 1
  }
  param {
    lr_mult: 1
    decay_mult: 0
  }
  convolution_param {
    num_output: 192
    pad: 1
    kernel_size: 3
    stride: 1
    weight_filler {
      type: "msra"
    }
    bias_filler {
      type: "constant"
    }
    engine: CUDNN
  }
}
layer {
  name: "ReLU22"
  type: "ReLU"
  bottom: "blob54"
  top: "blob54"
  relu_param {
    negative_slope: 0.1
    engine: CUDNN
  }
}
layer {
  name: "net2_conv6"
  type: "Convolution"
  bottom: "blob54"
  top: "blob55"
  param {
    lr_mult: 1
    decay_mult: 1
  }
  param {
    lr_mult: 1
    decay_mult: 0
  }
  convolution_param {
    num_output: 384
    pad: 1
    kernel_size: 3
    stride: 2
    weight_filler {
      type: "msra"
    }
    bias_filler {
      type: "constant"
    }
    engine: CUDNN
  }
}
layer {
  name: "ReLU23"
  type: "ReLU"
  bottom: "blob55"
  top: "blob55"
  relu_param {
    negative_slope: 0.1
    engine: CUDNN
  }
}
layer {
  name: "net2_conv6_1"
  type: "Convolution"
  bottom: "blob55"
  top: "blob56"
  param {
    lr_mult: 1
    decay_mult: 1
  }
  param {
    lr_mult: 1
    decay_mult: 0
  }
  convolution_param {
    num_output: 384
    pad: 1
    kernel_size: 3
    stride: 1
    weight_filler {
      type: "msra"
    }
    bias_filler {
      type: "constant"
    }
    engine: CUDNN
  }
}
layer {
  name: "ReLU24"
  type: "ReLU"
  bottom: "blob56"
  top: "blob56"
  relu_param {
    negative_slope: 0.1
    engine: CUDNN
  }
}
layer {
  name: "net2_predict_conv6"
  type: "Convolution"
  bottom: "blob56"
  top: "blob57"
  param {
    lr_mult: 1
    decay_mult: 1
  }
  param {
    lr_mult: 1
    decay_mult: 0
  }
  convolution_param {
    num_output: 2
    pad: 1
    kernel_size: 3
    stride: 1
    weight_filler {
      type: "msra"
    }
    bias_filler {
      type: "constant"
    }
    engine: CUDNN
  }
}
layer {
  name: "Downsample1"
  type: "Downsample"
  bottom: "blob46"
  bottom: "blob57"
  top: "blob58"
}
layer {
  name: "net2_flow_loss6"
  type: "L1Loss"
  bottom: "blob57"
  bottom: "blob58"
  top: "net2_flow_loss6"
  loss_weight: 0.32
  l1_loss_param {
    l2_per_location: true
  }
}
layer {
  name: "net2_deconv5"
  type: "Deconvolution"
  bottom: "blob56"
  top: "blob59"
  param {
    lr_mult: 1
    decay_mult: 0
  }
  param {
    lr_mult: 0
    decay_mult: 0
  }
  convolution_param {
    num_output: 192
    pad: 1
    kernel_size: 4
    stride: 2
    weight_filler {
      type: "msra"
    }
    bias_filler {
      type: "constant"
    }
    engine: CUDNN
  }
}
layer {
  name: "ReLU25"
  type: "ReLU"
  bottom: "blob59"
  top: "blob59"
  relu_param {
    negative_slope: 0.1
    engine: CUDNN
  }
}
layer {
  name: "net2_net2_upsample_flow6to5"
  type: "Deconvolution"
  bottom: "blob57"
  top: "blob60"
  param {
    lr_mult: 1
    decay_mult: 0
  }
  param {
    lr_mult: 0
    decay_mult: 0
  }
  convolution_param {
    num_output: 2
    pad: 1
    kernel_size: 4
    stride: 2
    weight_filler {
      type: "msra"
    }
    bias_filler {
      type: "constant"
    }
    engine: CUDNN
  }
}
layer {
  name: "Concat7"
  type: "Concat"
  bottom: "blob54"
  bottom: "blob59"
  bottom: "blob60"
  top: "blob61"
}
layer {
  name: "net2_predict_conv5"
  type: "Convolution"
  bottom: "blob61"
  top: "blob62"
  param {
    lr_mult: 1
    decay_mult: 1
  }
  param {
    lr_mult: 1
    decay_mult: 0
  }
  convolution_param {
    num_output: 2
    pad: 1
    kernel_size: 3
    stride: 1
    weight_filler {
      type: "msra"
    }
    bias_filler {
      type: "constant"
    }
    engine: CUDNN
  }
}
layer {
  name: "Downsample2"
  type: "Downsample"
  bottom: "blob46"
  bottom: "blob62"
  top: "blob63"
}
layer {
  name: "net2_flow_loss5"
  type: "L1Loss"
  bottom: "blob62"
  bottom: "blob63"
  top: "net2_flow_loss5"
  loss_weight: 0.08
  l1_loss_param {
    l2_per_location: true
  }
}
layer {
  name: "net2_deconv4"
  type: "Deconvolution"
  bottom: "blob61"
  top: "blob64"
  param {
    lr_mult: 1
    decay_mult: 0
  }
  param {
    lr_mult: 0
    decay_mult: 0
  }
  convolution_param {
    num_output: 96
    pad: 1
    kernel_size: 4
    stride: 2
    weight_filler {
      type: "msra"
    }
    bias_filler {
      type: "constant"
    }
    engine: CUDNN
  }
}
layer {
  name: "ReLU26"
  type: "ReLU"
  bottom: "blob64"
  top: "blob64"
  relu_param {
    negative_slope: 0.1
    engine: CUDNN
  }
}
layer {
  name: "net2_net2_upsample_flow5to4"
  type: "Deconvolution"
  bottom: "blob62"
  top: "blob65"
  param {
    lr_mult: 1
    decay_mult: 0
  }
  param {
    lr_mult: 0
    decay_mult: 0
  }
  convolution_param {
    num_output: 2
    pad: 1
    kernel_size: 4
    stride: 2
    weight_filler {
      type: "msra"
    }
    bias_filler {
      type: "constant"
    }
    engine: CUDNN
  }
}
layer {
  name: "Concat8"
  type: "Concat"
  bottom: "blob52"
  bottom: "blob64"
  bottom: "blob65"
  top: "blob66"
}
layer {
  name: "net2_predict_conv4"
  type: "Convolution"
  bottom: "blob66"
  top: "blob67"
  param {
    lr_mult: 1
    decay_mult: 1
  }
  param {
    lr_mult: 1
    decay_mult: 0
  }
  convolution_param {
    num_output: 2
    pad: 1
    kernel_size: 3
    stride: 1
    weight_filler {
      type: "msra"
    }
    bias_filler {
      type: "constant"
    }
    engine: CUDNN
  }
}
layer {
  name: "Downsample3"
  type: "Downsample"
  bottom: "blob46"
  bottom: "blob67"
  top: "blob68"
}
layer {
  name: "net2_flow_loss4"
  type: "L1Loss"
  bottom: "blob67"
  bottom: "blob68"
  top: "net2_flow_loss4"
  loss_weight: 0.02
  l1_loss_param {
    l2_per_location: true
  }
}
layer {
  name: "net2_deconv3"
  type: "Deconvolution"
  bottom: "blob66"
  top: "blob69"
  param {
    lr_mult: 1
    decay_mult: 0
  }
  param {
    lr_mult: 0
    decay_mult: 0
  }
  convolution_param {
    num_output: 48
    pad: 1
    kernel_size: 4
    stride: 2
    weight_filler {
      type: "msra"
    }
    bias_filler {
      type: "constant"
    }
    engine: CUDNN
  }
}
layer {
  name: "ReLU27"
  type: "ReLU"
  bottom: "blob69"
  top: "blob69"
  relu_param {
    negative_slope: 0.1
    engine: CUDNN
  }
}
layer {
  name: "net2_net2_upsample_flow4to3"
  type: "Deconvolution"
  bottom: "blob67"
  top: "blob70"
  param {
    lr_mult: 1
    decay_mult: 0
  }
  param {
    lr_mult: 0
    decay_mult: 0
  }
  convolution_param {
    num_output: 2
    pad: 1
    kernel_size: 4
    stride: 2
    weight_filler {
      type: "msra"
    }
    bias_filler {
      type: "constant"
    }
    engine: CUDNN
  }
}
layer {
  name: "Concat9"
  type: "Concat"
  bottom: "blob50"
  bottom: "blob69"
  bottom: "blob70"
  top: "blob71"
}
layer {
  name: "net2_predict_conv3"
  type: "Convolution"
  bottom: "blob71"
  top: "blob72"
  param {
    lr_mult: 1
    decay_mult: 1
  }
  param {
    lr_mult: 1
    decay_mult: 0
  }
  convolution_param {
    num_output: 2
    pad: 1
    kernel_size: 3
    stride: 1
    weight_filler {
      type: "msra"
    }
    bias_filler {
      type: "constant"
    }
    engine: CUDNN
  }
}
layer {
  name: "Downsample4"
  type: "Downsample"
  bottom: "blob46"
  bottom: "blob72"
  top: "blob73"
}
layer {
  name: "net2_flow_loss3"
  type: "L1Loss"
  bottom: "blob72"
  bottom: "blob73"
  top: "net2_flow_loss3"
  loss_weight: 0.01
  l1_loss_param {
    l2_per_location: true
  }
}
layer {
  name: "net2_deconv2"
  type: "Deconvolution"
  bottom: "blob71"
  top: "blob74"
  param {
    lr_mult: 1
    decay_mult: 0
  }
  param {
    lr_mult: 0
    decay_mult: 0
  }
  convolution_param {
    num_output: 24
    pad: 1
    kernel_size: 4
    stride: 2
    weight_filler {
      type: "msra"
    }
    bias_filler {
      type: "constant"
    }
    engine: CUDNN
  }
}
layer {
  name: "ReLU28"
  type: "ReLU"
  bottom: "blob74"
  top: "blob74"
  relu_param {
    negative_slope: 0.1
    engine: CUDNN
  }
}
layer {
  name: "net2_net2_upsample_flow3to2"
  type: "Deconvolution"
  bottom: "blob72"
  top: "blob75"
  param {
    lr_mult: 1
    decay_mult: 0
  }
  param {
    lr_mult: 0
    decay_mult: 0
  }
  convolution_param {
    num_output: 2
    pad: 1
    kernel_size: 4
    stride: 2
    weight_filler {
      type: "msra"
    }
    bias_fill
I1114 13:45:57.847688  1019 layer_factory.hpp:77] Creating layer CustomData1
I1114 13:45:57.847728  1019 net.cpp:93] Creating Layer CustomData1
I1114 13:45:57.847746  1019 net.cpp:410] CustomData1 -> blob0
I1114 13:45:57.847790  1019 net.cpp:410] CustomData1 -> blob1
I1114 13:45:57.847818  1019 net.cpp:410] CustomData1 -> blob2
I1114 13:45:57.847833  1019 net.cpp:410] CustomData1 -> unused1
I1114 13:45:57.847990  1019 custom_data_layer.cpp:364] LMDB: Cleaned 0 stale readers.
I1114 13:45:57.848019  1019 custom_data_layer.cpp:373] Opening lmdb /opt/datasets/training_lmdb
I1114 13:45:57.848037  1019 custom_data_layer.cpp:379] DB entries: 500
I1114 13:45:57.848068  1019 custom_data_layer.cpp:437] Data range: 0 to 499 = 500 entries.
I1114 13:45:58.289155  1019 custom_data_layer.cpp:541] output 0 data size: 8,3,680,1016
I1114 13:45:58.289208  1019 custom_data_layer.cpp:541] output 1 data size: 8,3,680,1016
I1114 13:45:58.289239  1019 custom_data_layer.cpp:541] output 2 data size: 8,2,680,1016
I1114 13:45:58.289268  1019 custom_data_layer.cpp:541] output 3 data size: 8,1,680,1016
I1114 13:45:58.386278  1019 net.cpp:145] Setting up CustomData1
I1114 13:45:58.386317  1019 net.cpp:152] Top shape: 8 3 680 1016 (16581120)
I1114 13:45:58.386325  1019 net.cpp:152] Top shape: 8 3 680 1016 (16581120)
I1114 13:45:58.386332  1019 net.cpp:152] Top shape: 8 2 680 1016 (11054080)
I1114 13:45:58.386338  1019 net.cpp:152] Top shape: 8 1 680 1016 (5527040)
I1114 13:45:58.386343  1019 net.cpp:160] Memory required for data: 198973440
I1114 13:45:58.386348  1019 net.cpp:184] DEBUG: need_backward = 0
I1114 13:45:58.386358  1019 layer_factory.hpp:77] Creating layer blob0_CustomData1_0_split
I1114 13:45:58.386409  1019 net.cpp:93] Creating Layer blob0_CustomData1_0_split
I1114 13:45:58.386420  1019 net.cpp:436] blob0_CustomData1_0_split <- blob0
I1114 13:45:58.386435  1019 net.cpp:410] blob0_CustomData1_0_split -> blob0_CustomData1_0_split_0
I1114 13:45:58.386449  1019 net.cpp:410] blob0_CustomData1_0_split -> blob0_CustomData1_0_split_1
I1114 13:45:58.386525  1019 net.cpp:145] Setting up blob0_CustomData1_0_split
I1114 13:45:58.386539  1019 net.cpp:152] Top shape: 8 3 680 1016 (16581120)
I1114 13:45:58.386545  1019 net.cpp:152] Top shape: 8 3 680 1016 (16581120)
I1114 13:45:58.386550  1019 net.cpp:160] Memory required for data: 331622400
I1114 13:45:58.386555  1019 net.cpp:184] DEBUG: need_backward = 0
I1114 13:45:58.386559  1019 layer_factory.hpp:77] Creating layer blob1_CustomData1_1_split
I1114 13:45:58.386567  1019 net.cpp:93] Creating Layer blob1_CustomData1_1_split
I1114 13:45:58.386572  1019 net.cpp:436] blob1_CustomData1_1_split <- blob1
I1114 13:45:58.386579  1019 net.cpp:410] blob1_CustomData1_1_split -> blob1_CustomData1_1_split_0
I1114 13:45:58.386587  1019 net.cpp:410] blob1_CustomData1_1_split -> blob1_CustomData1_1_split_1
I1114 13:45:58.386623  1019 net.cpp:145] Setting up blob1_CustomData1_1_split
I1114 13:45:58.386641  1019 net.cpp:152] Top shape: 8 3 680 1016 (16581120)
I1114 13:45:58.386647  1019 net.cpp:152] Top shape: 8 3 680 1016 (16581120)
I1114 13:45:58.386652  1019 net.cpp:160] Memory required for data: 464271360
I1114 13:45:58.386656  1019 net.cpp:184] DEBUG: need_backward = 0
I1114 13:45:58.386662  1019 layer_factory.hpp:77] Creating layer blob2_CustomData1_2_split
I1114 13:45:58.386669  1019 net.cpp:93] Creating Layer blob2_CustomData1_2_split
I1114 13:45:58.386678  1019 net.cpp:436] blob2_CustomData1_2_split <- blob2
I1114 13:45:58.386692  1019 net.cpp:410] blob2_CustomData1_2_split -> blob2_CustomData1_2_split_0
I1114 13:45:58.386705  1019 net.cpp:410] blob2_CustomData1_2_split -> blob2_CustomData1_2_split_1
I1114 13:45:58.386747  1019 net.cpp:145] Setting up blob2_CustomData1_2_split
I1114 13:45:58.386765  1019 net.cpp:152] Top shape: 8 2 680 1016 (11054080)
I1114 13:45:58.386775  1019 net.cpp:152] Top shape: 8 2 680 1016 (11054080)
I1114 13:45:58.386785  1019 net.cpp:160] Memory required for data: 552704000
I1114 13:45:58.386795  1019 net.cpp:184] DEBUG: need_backward = 0
I1114 13:45:58.386803  1019 layer_factory.hpp:77] Creating layer SilenceUnused1
I1114 13:45:58.386821  1019 net.cpp:93] Creating Layer SilenceUnused1
I1114 13:45:58.386832  1019 net.cpp:436] SilenceUnused1 <- unused1
I1114 13:45:58.386845  1019 net.cpp:145] Setting up SilenceUnused1
I1114 13:45:58.386874  1019 net.cpp:160] Memory required for data: 552704000
I1114 13:45:58.386889  1019 net.cpp:184] DEBUG: need_backward = 0
I1114 13:45:58.386899  1019 layer_factory.hpp:77] Creating layer Eltwise1
I1114 13:45:58.386924  1019 net.cpp:93] Creating Layer Eltwise1
I1114 13:45:58.386936  1019 net.cpp:436] Eltwise1 <- blob0_CustomData1_0_split_0
I1114 13:45:58.386951  1019 net.cpp:410] Eltwise1 -> blob3
I1114 13:45:58.387015  1019 net.cpp:145] Setting up Eltwise1
I1114 13:45:58.387030  1019 net.cpp:152] Top shape: 8 3 680 1016 (16581120)
I1114 13:45:58.387039  1019 net.cpp:160] Memory required for data: 619028480
I1114 13:45:58.387053  1019 net.cpp:184] DEBUG: need_backward = 0
I1114 13:45:58.387058  1019 layer_factory.hpp:77] Creating layer blob3_Eltwise1_0_split
I1114 13:45:58.387065  1019 net.cpp:93] Creating Layer blob3_Eltwise1_0_split
I1114 13:45:58.387071  1019 net.cpp:436] blob3_Eltwise1_0_split <- blob3
I1114 13:45:58.387084  1019 net.cpp:410] blob3_Eltwise1_0_split -> blob3_Eltwise1_0_split_0
I1114 13:45:58.387105  1019 net.cpp:410] blob3_Eltwise1_0_split -> blob3_Eltwise1_0_split_1
I1114 13:45:58.387176  1019 net.cpp:145] Setting up blob3_Eltwise1_0_split
I1114 13:45:58.387194  1019 net.cpp:152] Top shape: 8 3 680 1016 (16581120)
I1114 13:45:58.387207  1019 net.cpp:152] Top shape: 8 3 680 1016 (16581120)
I1114 13:45:58.387215  1019 net.cpp:160] Memory required for data: 751677440
I1114 13:45:58.387245  1019 net.cpp:184] DEBUG: need_backward = 0
I1114 13:45:58.387262  1019 layer_factory.hpp:77] Creating layer Eltwise2
I1114 13:45:58.387275  1019 net.cpp:93] Creating Layer Eltwise2
I1114 13:45:58.387286  1019 net.cpp:436] Eltwise2 <- blob1_CustomData1_1_split_0
I1114 13:45:58.387300  1019 net.cpp:410] Eltwise2 -> blob4
I1114 13:45:58.387356  1019 net.cpp:145] Setting up Eltwise2
I1114 13:45:58.387370  1019 net.cpp:152] Top shape: 8 3 680 1016 (16581120)
I1114 13:45:58.387377  1019 net.cpp:160] Memory required for data: 818001920
I1114 13:45:58.387387  1019 net.cpp:184] DEBUG: need_backward = 0
I1114 13:45:58.387418  1019 layer_factory.hpp:77] Creating layer img0s_aug
I1114 13:45:58.387452  1019 net.cpp:93] Creating Layer img0s_aug
I1114 13:45:58.387467  1019 net.cpp:436] img0s_aug <- blob3_Eltwise1_0_split_0
I1114 13:45:58.387487  1019 net.cpp:410] img0s_aug -> img0_aug
I1114 13:45:58.387536  1019 net.cpp:410] img0s_aug -> blob6
W1114 13:45:58.387567  1019 data_augmentation_layer.cpp:40] DataAugmentationLayer only runs Reshape on setup
I1114 13:45:58.387596  1019 data_augmentation_layer.cpp:45] Recompute mean
W1114 13:45:58.387809  1019 data_augmentation_layer.cpp:77] Reshape of Augmentation layer should only be called once? Check this
I1114 13:45:58.387902  1019 data_augmentation_layer.cpp:123] Emitting 42 augmentation params
I1114 13:45:58.389405  1019 net.cpp:145] Setting up img0s_aug
I1114 13:45:58.389430  1019 net.cpp:152] Top shape: 8 3 384 768 (7077888)
I1114 13:45:58.389443  1019 net.cpp:152] Top shape: 8 42 1 1 (336)
I1114 13:45:58.389454  1019 net.cpp:160] Memory required for data: 846314816
W1114 13:45:58.389467  1019 data_augmentation_layer.hpp:29] DataAugmentationLayer does not do backward.
W1114 13:45:58.389492  1019 data_augmentation_layer.hpp:29] DataAugmentationLayer does not do backward.
W1114 13:45:58.389511  1019 data_augmentation_layer.hpp:29] DataAugmentationLayer does not do backward.
W1114 13:45:58.389551  1019 data_augmentation_layer.hpp:29] DataAugmentationLayer does not do backward.
I1114 13:45:58.389569  1019 net.cpp:184] DEBUG: need_backward = 0
I1114 13:45:58.389580  1019 layer_factory.hpp:77] Creating layer img0_aug_img0s_aug_0_split
I1114 13:45:58.389598  1019 net.cpp:93] Creating Layer img0_aug_img0s_aug_0_split
I1114 13:45:58.389609  1019 net.cpp:436] img0_aug_img0s_aug_0_split <- img0_aug
I1114 13:45:58.389626  1019 net.cpp:410] img0_aug_img0s_aug_0_split -> img0_aug_img0s_aug_0_split_0
I1114 13:45:58.389650  1019 net.cpp:410] img0_aug_img0s_aug_0_split -> img0_aug_img0s_aug_0_split_1
I1114 13:45:58.389673  1019 net.cpp:410] img0_aug_img0s_aug_0_split -> img0_aug_img0s_aug_0_split_2
I1114 13:45:58.389689  1019 net.cpp:410] img0_aug_img0s_aug_0_split -> img0_aug_img0s_aug_0_split_3
I1114 13:45:58.389706  1019 net.cpp:410] img0_aug_img0s_aug_0_split -> img0_aug_img0s_aug_0_split_4
I1114 13:45:58.389797  1019 net.cpp:145] Setting up img0_aug_img0s_aug_0_split
I1114 13:45:58.389813  1019 net.cpp:152] Top shape: 8 3 384 768 (7077888)
I1114 13:45:58.389819  1019 net.cpp:152] Top shape: 8 3 384 768 (7077888)
I1114 13:45:58.389827  1019 net.cpp:152] Top shape: 8 3 384 768 (7077888)
I1114 13:45:58.389839  1019 net.cpp:152] Top shape: 8 3 384 768 (7077888)
I1114 13:45:58.389853  1019 net.cpp:152] Top shape: 8 3 384 768 (7077888)
I1114 13:45:58.389863  1019 net.cpp:160] Memory required for data: 987872576
I1114 13:45:58.389871  1019 net.cpp:184] DEBUG: need_backward = 0
I1114 13:45:58.389878  1019 layer_factory.hpp:77] Creating layer blob6_img0s_aug_1_split
I1114 13:45:58.389891  1019 net.cpp:93] Creating Layer blob6_img0s_aug_1_split
I1114 13:45:58.389901  1019 net.cpp:436] blob6_img0s_aug_1_split <- blob6
I1114 13:45:58.389914  1019 net.cpp:410] blob6_img0s_aug_1_split -> blob6_img0s_aug_1_split_0
I1114 13:45:58.389926  1019 net.cpp:410] blob6_img0s_aug_1_split -> blob6_img0s_aug_1_split_1
I1114 13:45:58.389979  1019 net.cpp:145] Setting up blob6_img0s_aug_1_split
I1114 13:45:58.389994  1019 net.cpp:152] Top shape: 8 42 1 1 (336)
I1114 13:45:58.390000  1019 net.cpp:152] Top shape: 8 42 1 1 (336)
I1114 13:45:58.390027  1019 net.cpp:160] Memory required for data: 987875264
I1114 13:45:58.390034  1019 net.cpp:184] DEBUG: need_backward = 0
I1114 13:45:58.390039  1019 layer_factory.hpp:77] Creating layer aug_params1
I1114 13:45:58.390058  1019 net.cpp:93] Creating Layer aug_params1
I1114 13:45:58.390065  1019 net.cpp:436] aug_params1 <- blob6_img0s_aug_1_split_0
I1114 13:45:58.390071  1019 net.cpp:436] aug_params1 <- blob3_Eltwise1_0_split_1
I1114 13:45:58.390077  1019 net.cpp:436] aug_params1 <- img0_aug_img0s_aug_0_split_0
I1114 13:45:58.390086  1019 net.cpp:410] aug_params1 -> blob7
W1114 13:45:58.390101  1019 generate_augmentation_parameters_layer.cpp:36] GenerateAugmentationParametersLayer only runs Reshape only on setup
I1114 13:45:58.390118  1019 generate_augmentation_parameters_layer.cpp:68] mode: add
I1114 13:45:58.390154  1019 net.cpp:145] Setting up aug_params1
I1114 13:45:58.390168  1019 net.cpp:152] Top shape: 8 42 1 1 (336)
I1114 13:45:58.390177  1019 net.cpp:160] Memory required for data: 987876608
W1114 13:45:58.390187  1019 generate_augmentation_parameters_layer.hpp:27] GenerateAugmentationParametersLayer does not do backward.
I1114 13:45:58.390208  1019 net.cpp:184] DEBUG: need_backward = 0
I1114 13:45:58.390220  1019 layer_factory.hpp:77] Creating layer blob7_aug_params1_0_split
I1114 13:45:58.390235  1019 net.cpp:93] Creating Layer blob7_aug_params1_0_split
I1114 13:45:58.390247  1019 net.cpp:436] blob7_aug_params1_0_split <- blob7
I1114 13:45:58.390264  1019 net.cpp:410] blob7_aug_params1_0_split -> blob7_aug_params1_0_split_0
I1114 13:45:58.390280  1019 net.cpp:410] blob7_aug_params1_0_split -> blob7_aug_params1_0_split_1
I1114 13:45:58.390332  1019 net.cpp:145] Setting up blob7_aug_params1_0_split
I1114 13:45:58.390348  1019 net.cpp:152] Top shape: 8 42 1 1 (336)
I1114 13:45:58.390363  1019 net.cpp:152] Top shape: 8 42 1 1 (336)
I1114 13:45:58.390374  1019 net.cpp:160] Memory required for data: 987879296
I1114 13:45:58.390385  1019 net.cpp:184] DEBUG: need_backward = 0
I1114 13:45:58.390394  1019 layer_factory.hpp:77] Creating layer img1s_aug
I1114 13:45:58.390411  1019 net.cpp:93] Creating Layer img1s_aug
I1114 13:45:58.390419  1019 net.cpp:436] img1s_aug <- blob4
I1114 13:45:58.390426  1019 net.cpp:436] img1s_aug <- blob7_aug_params1_0_split_0
I1114 13:45:58.390434  1019 net.cpp:410] img1s_aug -> img1_aug
W1114 13:45:58.390444  1019 data_augmentation_layer.cpp:40] DataAugmentationLayer only runs Reshape on setup
I1114 13:45:58.390460  1019 data_augmentation_layer.cpp:45] Recompute mean
W1114 13:45:58.390542  1019 data_augmentation_layer.cpp:77] Reshape of Augmentation layer should only be called once? Check this
I1114 13:45:58.390588  1019 data_augmentation_layer.cpp:116] Receiving 42 augmentation params
I1114 13:45:58.391945  1019 net.cpp:145] Setting up img1s_aug
I1114 13:45:58.391964  1019 net.cpp:152] Top shape: 8 3 384 768 (7077888)
I1114 13:45:58.391969  1019 net.cpp:160] Memory required for data: 1016190848
W1114 13:45:58.391979  1019 data_augmentation_layer.hpp:29] DataAugmentationLayer does not do backward.
W1114 13:45:58.391999  1019 data_augmentation_layer.hpp:29] DataAugmentationLayer does not do backward.
W1114 13:45:58.392014  1019 data_augmentation_layer.hpp:29] DataAugmentationLayer does not do backward.
W1114 13:45:58.392040  1019 data_augmentation_layer.hpp:29] DataAugmentationLayer does not do backward.
I1114 13:45:58.392055  1019 net.cpp:184] DEBUG: need_backward = 0
I1114 13:45:58.392066  1019 layer_factory.hpp:77] Creating layer img1_aug_img1s_aug_0_split
I1114 13:45:58.392081  1019 net.cpp:93] Creating Layer img1_aug_img1s_aug_0_split
I1114 13:45:58.392091  1019 net.cpp:436] img1_aug_img1s_aug_0_split <- img1_aug
I1114 13:45:58.392105  1019 net.cpp:410] img1_aug_img1s_aug_0_split -> img1_aug_img1s_aug_0_split_0
I1114 13:45:58.392122  1019 net.cpp:410] img1_aug_img1s_aug_0_split -> img1_aug_img1s_aug_0_split_1
I1114 13:45:58.392138  1019 net.cpp:410] img1_aug_img1s_aug_0_split -> img1_aug_img1s_aug_0_split_2
I1114 13:45:58.392220  1019 net.cpp:145] Setting up img1_aug_img1s_aug_0_split
I1114 13:45:58.392249  1019 net.cpp:152] Top shape: 8 3 384 768 (7077888)
I1114 13:45:58.392266  1019 net.cpp:152] Top shape: 8 3 384 768 (7077888)
I1114 13:45:58.392277  1019 net.cpp:152] Top shape: 8 3 384 768 (7077888)
I1114 13:45:58.392288  1019 net.cpp:160] Memory required for data: 1101125504
I1114 13:45:58.392299  1019 net.cpp:184] DEBUG: need_backward = 0
I1114 13:45:58.392312  1019 layer_factory.hpp:77] Creating layer FlowAugmentation1
I1114 13:45:58.392334  1019 net.cpp:93] Creating Layer FlowAugmentation1
I1114 13:45:58.392345  1019 net.cpp:436] FlowAugmentation1 <- blob2_CustomData1_2_split_0
I1114 13:45:58.392357  1019 net.cpp:436] FlowAugmentation1 <- blob6_img0s_aug_1_split_1
I1114 13:45:58.392371  1019 net.cpp:436] FlowAugmentation1 <- blob7_aug_params1_0_split_1
I1114 13:45:58.392387  1019 net.cpp:410] FlowAugmentation1 -> flow_gt_aug
W1114 13:45:58.392406  1019 flow_augmentation_layer.cpp:36] FlowAugmentationLayer only runs Reshape only on setup
I1114 13:45:58.392482  1019 net.cpp:145] Setting up FlowAugmentation1
I1114 13:45:58.392498  1019 net.cpp:152] Top shape: 8 2 384 768 (4718592)
I1114 13:45:58.392510  1019 net.cpp:160] Memory required for data: 1119999872
W1114 13:45:58.392519  1019 flow_augmentation_layer.hpp:28] FlowAugmentationLayer does not do backward.
I1114 13:45:58.392539  1019 net.cpp:184] DEBUG: need_backward = 0
I1114 13:45:58.392549  1019 layer_factory.hpp:77] Creating layer flow_gt_aug_FlowAugmentation1_0_split
I1114 13:45:58.392566  1019 net.cpp:93] Creating Layer flow_gt_aug_FlowAugmentation1_0_split
I1114 13:45:58.392578  1019 net.cpp:436] flow_gt_aug_FlowAugmentation1_0_split <- flow_gt_aug
I1114 13:45:58.392591  1019 net.cpp:410] flow_gt_aug_FlowAugmentation1_0_split -> flow_gt_aug_FlowAugmentation1_0_split_0
I1114 13:45:58.392609  1019 net.cpp:410] flow_gt_aug_FlowAugmentation1_0_split -> flow_gt_aug_FlowAugmentation1_0_split_1
I1114 13:45:58.392663  1019 net.cpp:145] Setting up flow_gt_aug_FlowAugmentation1_0_split
I1114 13:45:58.392680  1019 net.cpp:152] Top shape: 8 2 384 768 (4718592)
I1114 13:45:58.392696  1019 net.cpp:152] Top shape: 8 2 384 768 (4718592)
I1114 13:45:58.392707  1019 net.cpp:160] Memory required for data: 1157748608
I1114 13:45:58.392719  1019 net.cpp:184] DEBUG: need_backward = 0
I1114 13:45:58.392729  1019 layer_factory.hpp:77] Creating layer Concat1
I1114 13:45:58.392745  1019 net.cpp:93] Creating Layer Concat1
I1114 13:45:58.392757  1019 net.cpp:436] Concat1 <- img0_aug_img0s_aug_0_split_1
I1114 13:45:58.392771  1019 net.cpp:436] Concat1 <- img1_aug_img1s_aug_0_split_0
I1114 13:45:58.392786  1019 net.cpp:410] Concat1 -> blob10
I1114 13:45:58.392829  1019 net.cpp:145] Setting up Concat1
I1114 13:45:58.392845  1019 net.cpp:152] Top shape: 8 6 384 768 (14155776)
I1114 13:45:58.392858  1019 net.cpp:160] Memory required for data: 1214371712
I1114 13:45:58.392868  1019 net.cpp:184] DEBUG: need_backward = 0
I1114 13:45:58.392877  1019 layer_factory.hpp:77] Creating layer Eltwise3
I1114 13:45:58.392894  1019 net.cpp:93] Creating Layer Eltwise3
I1114 13:45:58.392904  1019 net.cpp:436] Eltwise3 <- flow_gt_aug_FlowAugmentation1_0_split_0
I1114 13:45:58.392920  1019 net.cpp:410] Eltwise3 -> blob11
I1114 13:45:58.392961  1019 net.cpp:145] Setting up Eltwise3
I1114 13:45:58.392976  1019 net.cpp:152] Top shape: 8 2 384 768 (4718592)
I1114 13:45:58.392987  1019 net.cpp:160] Memory required for data: 1233246080
I1114 13:45:58.392998  1019 net.cpp:184] DEBUG: need_backward = 0
I1114 13:45:58.393009  1019 layer_factory.hpp:77] Creating layer conv1
I1114 13:45:58.393036  1019 net.cpp:93] Creating Layer conv1
I1114 13:45:58.393049  1019 net.cpp:436] conv1 <- blob10
I1114 13:45:58.393062  1019 net.cpp:410] conv1 -> blob12
I1114 13:45:59.168417  1019 net.cpp:145] Setting up conv1
I1114 13:45:59.168452  1019 net.cpp:152] Top shape: 8 24 192 384 (14155776)
I1114 13:45:59.168462  1019 net.cpp:160] Memory required for data: 1289869184
I1114 13:45:59.168481  1019 net.cpp:184] DEBUG: need_backward = 0
I1114 13:45:59.168491  1019 layer_factory.hpp:77] Creating layer ReLU1
I1114 13:45:59.168541  1019 net.cpp:93] Creating Layer ReLU1
I1114 13:45:59.168557  1019 net.cpp:436] ReLU1 <- blob12
I1114 13:45:59.168576  1019 net.cpp:397] ReLU1 -> blob12 (in-place)
I1114 13:45:59.168793  1019 net.cpp:145] Setting up ReLU1
I1114 13:45:59.168810  1019 net.cpp:152] Top shape: 8 24 192 384 (14155776)
I1114 13:45:59.168820  1019 net.cpp:160] Memory required for data: 1346492288
I1114 13:45:59.168828  1019 net.cpp:184] DEBUG: need_backward = 0
I1114 13:45:59.168838  1019 layer_factory.hpp:77] Creating layer conv2
I1114 13:45:59.168864  1019 net.cpp:93] Creating Layer conv2
I1114 13:45:59.168874  1019 net.cpp:436] conv2 <- blob12
I1114 13:45:59.168889  1019 net.cpp:410] conv2 -> blob13
I1114 13:45:59.172113  1019 net.cpp:145] Setting up conv2
I1114 13:45:59.172133  1019 net.cpp:152] Top shape: 8 48 96 192 (7077888)
I1114 13:45:59.172142  1019 net.cpp:160] Memory required for data: 1374803840
I1114 13:45:59.172165  1019 net.cpp:184] DEBUG: need_backward = 0
I1114 13:45:59.172175  1019 layer_factory.hpp:77] Creating layer ReLU2
I1114 13:45:59.172190  1019 net.cpp:93] Creating Layer ReLU2
I1114 13:45:59.172201  1019 net.cpp:436] ReLU2 <- blob13
I1114 13:45:59.172233  1019 net.cpp:397] ReLU2 -> blob13 (in-place)
I1114 13:45:59.172758  1019 net.cpp:145] Setting up ReLU2
I1114 13:45:59.172776  1019 net.cpp:152] Top shape: 8 48 96 192 (7077888)
I1114 13:45:59.172785  1019 net.cpp:160] Memory required for data: 1403115392
I1114 13:45:59.172798  1019 net.cpp:184] DEBUG: need_backward = 0
I1114 13:45:59.172809  1019 layer_factory.hpp:77] Creating layer blob13_ReLU2_0_split
I1114 13:45:59.172824  1019 net.cpp:93] Creating Layer blob13_ReLU2_0_split
I1114 13:45:59.172837  1019 net.cpp:436] blob13_ReLU2_0_split <- blob13
I1114 13:45:59.172853  1019 net.cpp:410] blob13_ReLU2_0_split -> blob13_ReLU2_0_split_0
I1114 13:45:59.172871  1019 net.cpp:410] blob13_ReLU2_0_split -> blob13_ReLU2_0_split_1
I1114 13:45:59.172930  1019 net.cpp:145] Setting up blob13_ReLU2_0_split
I1114 13:45:59.172946  1019 net.cpp:152] Top shape: 8 48 96 192 (7077888)
I1114 13:45:59.172960  1019 net.cpp:152] Top shape: 8 48 96 192 (7077888)
I1114 13:45:59.172972  1019 net.cpp:160] Memory required for data: 1459738496
I1114 13:45:59.172982  1019 net.cpp:184] DEBUG: need_backward = 0
I1114 13:45:59.172993  1019 layer_factory.hpp:77] Creating layer conv3
I1114 13:45:59.173012  1019 net.cpp:93] Creating Layer conv3
I1114 13:45:59.173023  1019 net.cpp:436] conv3 <- blob13_ReLU2_0_split_0
I1114 13:45:59.173038  1019 net.cpp:410] conv3 -> blob14
I1114 13:45:59.178515  1019 net.cpp:145] Setting up conv3
I1114 13:45:59.178535  1019 net.cpp:152] Top shape: 8 96 48 96 (3538944)
I1114 13:45:59.178545  1019 net.cpp:160] Memory required for data: 1473894272
I1114 13:45:59.178560  1019 net.cpp:184] DEBUG: need_backward = 0
I1114 13:45:59.178573  1019 layer_factory.hpp:77] Creating layer ReLU3
I1114 13:45:59.178586  1019 net.cpp:93] Creating Layer ReLU3
I1114 13:45:59.178599  1019 net.cpp:436] ReLU3 <- blob14
I1114 13:45:59.178613  1019 net.cpp:397] ReLU3 -> blob14 (in-place)
I1114 13:45:59.179153  1019 net.cpp:145] Setting up ReLU3
I1114 13:45:59.179172  1019 net.cpp:152] Top shape: 8 96 48 96 (3538944)
I1114 13:45:59.179181  1019 net.cpp:160] Memory required for data: 1488050048
I1114 13:45:59.179190  1019 net.cpp:184] DEBUG: need_backward = 0
I1114 13:45:59.179201  1019 layer_factory.hpp:77] Creating layer conv3_1
I1114 13:45:59.179222  1019 net.cpp:93] Creating Layer conv3_1
I1114 13:45:59.179234  1019 net.cpp:436] conv3_1 <- blob14
I1114 13:45:59.179250  1019 net.cpp:410] conv3_1 -> blob15
I1114 13:45:59.183837  1019 net.cpp:145] Setting up conv3_1
I1114 13:45:59.183856  1019 net.cpp:152] Top shape: 8 96 48 96 (3538944)
I1114 13:45:59.183866  1019 net.cpp:160] Memory required for data: 1502205824
I1114 13:45:59.183881  1019 net.cpp:184] DEBUG: need_backward = 0
I1114 13:45:59.183894  1019 layer_factory.hpp:77] Creating layer ReLU4
I1114 13:45:59.183908  1019 net.cpp:93] Creating Layer ReLU4
I1114 13:45:59.183921  1019 net.cpp:436] ReLU4 <- blob15
I1114 13:45:59.183962  1019 net.cpp:397] ReLU4 -> blob15 (in-place)
I1114 13:45:59.184178  1019 net.cpp:145] Setting up ReLU4
I1114 13:45:59.184196  1019 net.cpp:152] Top shape: 8 96 48 96 (3538944)
I1114 13:45:59.184221  1019 net.cpp:160] Memory required for data: 1516361600
I1114 13:45:59.184247  1019 net.cpp:184] DEBUG: need_backward = 0
I1114 13:45:59.184257  1019 layer_factory.hpp:77] Creating layer blob15_ReLU4_0_split
I1114 13:45:59.184264  1019 net.cpp:93] Creating Layer blob15_ReLU4_0_split
I1114 13:45:59.184270  1019 net.cpp:436] blob15_ReLU4_0_split <- blob15
I1114 13:45:59.184278  1019 net.cpp:410] blob15_ReLU4_0_split -> blob15_ReLU4_0_split_0
I1114 13:45:59.184288  1019 net.cpp:410] blob15_ReLU4_0_split -> blob15_ReLU4_0_split_1
I1114 13:45:59.184355  1019 net.cpp:145] Setting up blob15_ReLU4_0_split
I1114 13:45:59.184370  1019 net.cpp:152] Top shape: 8 96 48 96 (3538944)
I1114 13:45:59.184376  1019 net.cpp:152] Top shape: 8 96 48 96 (3538944)
I1114 13:45:59.184381  1019 net.cpp:160] Memory required for data: 1544673152
I1114 13:45:59.184384  1019 net.cpp:184] DEBUG: need_backward = 0
I1114 13:45:59.184389  1019 layer_factory.hpp:77] Creating layer conv4
I1114 13:45:59.184401  1019 net.cpp:93] Creating Layer conv4
I1114 13:45:59.184406  1019 net.cpp:436] conv4 <- blob15_ReLU4_0_split_0
I1114 13:45:59.184415  1019 net.cpp:410] conv4 -> blob16
I1114 13:45:59.193783  1019 net.cpp:145] Setting up conv4
I1114 13:45:59.193811  1019 net.cpp:152] Top shape: 8 192 24 48 (1769472)
I1114 13:45:59.193816  1019 net.cpp:160] Memory required for data: 1551751040
I1114 13:45:59.193826  1019 net.cpp:184] DEBUG: need_backward = 0
I1114 13:45:59.193832  1019 layer_factory.hpp:77] Creating layer ReLU5
I1114 13:45:59.193842  1019 net.cpp:93] Creating Layer ReLU5
I1114 13:45:59.193850  1019 net.cpp:436] ReLU5 <- blob16
I1114 13:45:59.193859  1019 net.cpp:397] ReLU5 -> blob16 (in-place)
I1114 13:45:59.194095  1019 net.cpp:145] Setting up ReLU5
I1114 13:45:59.194111  1019 net.cpp:152] Top shape: 8 192 24 48 (1769472)
I1114 13:45:59.194116  1019 net.cpp:160] Memory required for data: 1558828928
I1114 13:45:59.194120  1019 net.cpp:184] DEBUG: need_backward = 0
I1114 13:45:59.194125  1019 layer_factory.hpp:77] Creating layer conv4_1
I1114 13:45:59.194141  1019 net.cpp:93] Creating Layer conv4_1
I1114 13:45:59.194147  1019 net.cpp:436] conv4_1 <- blob16
I1114 13:45:59.194156  1019 net.cpp:410] conv4_1 -> blob17
I1114 13:45:59.208248  1019 net.cpp:145] Setting up conv4_1
I1114 13:45:59.208284  1019 net.cpp:152] Top shape: 8 192 24 48 (1769472)
I1114 13:45:59.208290  1019 net.cpp:160] Memory required for data: 1565906816
I1114 13:45:59.208308  1019 net.cpp:184] DEBUG: need_backward = 0
I1114 13:45:59.208313  1019 layer_factory.hpp:77] Creating layer ReLU6
I1114 13:45:59.208334  1019 net.cpp:93] Creating Layer ReLU6
I1114 13:45:59.208343  1019 net.cpp:436] ReLU6 <- blob17
I1114 13:45:59.208351  1019 net.cpp:397] ReLU6 -> blob17 (in-place)
I1114 13:45:59.208595  1019 net.cpp:145] Setting up ReLU6
I1114 13:45:59.208611  1019 net.cpp:152] Top shape: 8 192 24 48 (1769472)
I1114 13:45:59.208616  1019 net.cpp:160] Memory required for data: 1572984704
I1114 13:45:59.208621  1019 net.cpp:184] DEBUG: need_backward = 0
I1114 13:45:59.208626  1019 layer_factory.hpp:77] Creating layer blob17_ReLU6_0_split
I1114 13:45:59.208636  1019 net.cpp:93] Creating Layer blob17_ReLU6_0_split
I1114 13:45:59.208643  1019 net.cpp:436] blob17_ReLU6_0_split <- blob17
I1114 13:45:59.208653  1019 net.cpp:410] blob17_ReLU6_0_split -> blob17_ReLU6_0_split_0
I1114 13:45:59.208665  1019 net.cpp:410] blob17_ReLU6_0_split -> blob17_ReLU6_0_split_1
I1114 13:45:59.208719  1019 net.cpp:145] Setting up blob17_ReLU6_0_split
I1114 13:45:59.208734  1019 net.cpp:152] Top shape: 8 192 24 48 (1769472)
I1114 13:45:59.208740  1019 net.cpp:152] Top shape: 8 192 24 48 (1769472)
I1114 13:45:59.208745  1019 net.cpp:160] Memory required for data: 1587140480
I1114 13:45:59.208750  1019 net.cpp:184] DEBUG: need_backward = 0
I1114 13:45:59.208753  1019 layer_factory.hpp:77] Creating layer conv5
I1114 13:45:59.208804  1019 net.cpp:93] Creating Layer conv5
I1114 13:45:59.208815  1019 net.cpp:436] conv5 <- blob17_ReLU6_0_split_0
I1114 13:45:59.208825  1019 net.cpp:410] conv5 -> blob18
I1114 13:45:59.224920  1019 net.cpp:145] Setting up conv5
I1114 13:45:59.224953  1019 net.cpp:152] Top shape: 8 192 12 24 (442368)
I1114 13:45:59.224959  1019 net.cpp:160] Memory required for data: 1588909952
I1114 13:45:59.224973  1019 net.cpp:184] DEBUG: need_backward = 0
I1114 13:45:59.224983  1019 layer_factory.hpp:77] Creating layer ReLU7
I1114 13:45:59.224997  1019 net.cpp:93] Creating Layer ReLU7
I1114 13:45:59.225005  1019 net.cpp:436] ReLU7 <- blob18
I1114 13:45:59.225016  1019 net.cpp:397] ReLU7 -> blob18 (in-place)
I1114 13:45:59.225276  1019 net.cpp:145] Setting up ReLU7
I1114 13:45:59.225294  1019 net.cpp:152] Top shape: 8 192 12 24 (442368)
I1114 13:45:59.225303  1019 net.cpp:160] Memory required for data: 1590679424
I1114 13:45:59.225311  1019 net.cpp:184] DEBUG: need_backward = 0
I1114 13:45:59.225319  1019 layer_factory.hpp:77] Creating layer conv5_1
I1114 13:45:59.225365  1019 net.cpp:93] Creating Layer conv5_1
I1114 13:45:59.225378  1019 net.cpp:436] conv5_1 <- blob18
I1114 13:45:59.225391  1019 net.cpp:410] conv5_1 -> blob19
I1114 13:45:59.240820  1019 net.cpp:145] Setting up conv5_1
I1114 13:45:59.240854  1019 net.cpp:152] Top shape: 8 192 12 24 (442368)
I1114 13:45:59.240859  1019 net.cpp:160] Memory required for data: 1592448896
I1114 13:45:59.240870  1019 net.cpp:184] DEBUG: need_backward = 0
I1114 13:45:59.240875  1019 layer_factory.hpp:77] Creating layer ReLU8
I1114 13:45:59.240888  1019 net.cpp:93] Creating Layer ReLU8
I1114 13:45:59.240895  1019 net.cpp:436] ReLU8 <- blob19
I1114 13:45:59.240908  1019 net.cpp:397] ReLU8 -> blob19 (in-place)
I1114 13:45:59.241473  1019 net.cpp:145] Setting up ReLU8
I1114 13:45:59.241489  1019 net.cpp:152] Top shape: 8 192 12 24 (442368)
I1114 13:45:59.241494  1019 net.cpp:160] Memory required for data: 1594218368
I1114 13:45:59.241500  1019 net.cpp:184] DEBUG: need_backward = 0
I1114 13:45:59.241511  1019 layer_factory.hpp:77] Creating layer blob19_ReLU8_0_split
I1114 13:45:59.241529  1019 net.cpp:93] Creating Layer blob19_ReLU8_0_split
I1114 13:45:59.241542  1019 net.cpp:436] blob19_ReLU8_0_split <- blob19
I1114 13:45:59.241559  1019 net.cpp:410] blob19_ReLU8_0_split -> blob19_ReLU8_0_split_0
I1114 13:45:59.241582  1019 net.cpp:410] blob19_ReLU8_0_split -> blob19_ReLU8_0_split_1
I1114 13:45:59.241662  1019 net.cpp:145] Setting up blob19_ReLU8_0_split
I1114 13:45:59.241677  1019 net.cpp:152] Top shape: 8 192 12 24 (442368)
I1114 13:45:59.241683  1019 net.cpp:152] Top shape: 8 192 12 24 (442368)
I1114 13:45:59.241688  1019 net.cpp:160] Memory required for data: 1597757312
I1114 13:45:59.241696  1019 net.cpp:184] DEBUG: need_backward = 0
I1114 13:45:59.241704  1019 layer_factory.hpp:77] Creating layer conv6
I1114 13:45:59.241726  1019 net.cpp:93] Creating Layer conv6
I1114 13:45:59.241737  1019 net.cpp:436] conv6 <- blob19_ReLU8_0_split_0
I1114 13:45:59.241760  1019 net.cpp:410] conv6 -> blob20
I1114 13:45:59.268362  1019 net.cpp:145] Setting up conv6
I1114 13:45:59.268396  1019 net.cpp:152] Top shape: 8 384 6 12 (221184)
I1114 13:45:59.268402  1019 net.cpp:160] Memory required for data: 1598642048
I1114 13:45:59.268412  1019 net.cpp:184] DEBUG: need_backward = 0
I1114 13:45:59.268419  1019 layer_factory.hpp:77] Creating layer ReLU9
I1114 13:45:59.268430  1019 net.cpp:93] Creating Layer ReLU9
I1114 13:45:59.268437  1019 net.cpp:436] ReLU9 <- blob20
I1114 13:45:59.268448  1019 net.cpp:397] ReLU9 -> blob20 (in-place)
I1114 13:45:59.269153  1019 net.cpp:145] Setting up ReLU9
I1114 13:45:59.269170  1019 net.cpp:152] Top shape: 8 384 6 12 (221184)
I1114 13:45:59.269176  1019 net.cpp:160] Memory required for data: 1599526784
I1114 13:45:59.269181  1019 net.cpp:184] DEBUG: need_backward = 0
I1114 13:45:59.269187  1019 layer_factory.hpp:77] Creating layer conv6_1
I1114 13:45:59.269209  1019 net.cpp:93] Creating Layer conv6_1
I1114 13:45:59.269225  1019 net.cpp:436] conv6_1 <- blob20
I1114 13:45:59.269273  1019 net.cpp:410] conv6_1 -> blob21
I1114 13:45:59.321527  1019 net.cpp:145] Setting up conv6_1
I1114 13:45:59.321563  1019 net.cpp:152] Top shape: 8 384 6 12 (221184)
I1114 13:45:59.321568  1019 net.cpp:160] Memory required for data: 1600411520
I1114 13:45:59.321578  1019 net.cpp:184] DEBUG: need_backward = 0
I1114 13:45:59.321584  1019 layer_factory.hpp:77] Creating layer ReLU10
I1114 13:45:59.321609  1019 net.cpp:93] Creating Layer ReLU10
I1114 13:45:59.321619  1019 net.cpp:436] ReLU10 <- blob21
I1114 13:45:59.321630  1019 net.cpp:397] ReLU10 -> blob21 (in-place)
I1114 13:45:59.321882  1019 net.cpp:145] Setting up ReLU10
I1114 13:45:59.321898  1019 net.cpp:152] Top shape: 8 384 6 12 (221184)
I1114 13:45:59.321903  1019 net.cpp:160] Memory required for data: 1601296256
I1114 13:45:59.321907  1019 net.cpp:184] DEBUG: need_backward = 0
I1114 13:45:59.321913  1019 layer_factory.hpp:77] Creating layer blob21_ReLU10_0_split
I1114 13:45:59.321924  1019 net.cpp:93] Creating Layer blob21_ReLU10_0_split
I1114 13:45:59.321935  1019 net.cpp:436] blob21_ReLU10_0_split <- blob21
I1114 13:45:59.321949  1019 net.cpp:410] blob21_ReLU10_0_split -> blob21_ReLU10_0_split_0
I1114 13:45:59.321964  1019 net.cpp:410] blob21_ReLU10_0_split -> blob21_ReLU10_0_split_1
I1114 13:45:59.322041  1019 net.cpp:145] Setting up blob21_ReLU10_0_split
I1114 13:45:59.322057  1019 net.cpp:152] Top shape: 8 384 6 12 (221184)
I1114 13:45:59.322062  1019 net.cpp:152] Top shape: 8 384 6 12 (221184)
I1114 13:45:59.322067  1019 net.cpp:160] Memory required for data: 1603065728
I1114 13:45:59.322070  1019 net.cpp:184] DEBUG: need_backward = 0
I1114 13:45:59.322075  1019 layer_factory.hpp:77] Creating layer predict_conv6
I1114 13:45:59.322093  1019 net.cpp:93] Creating Layer predict_conv6
I1114 13:45:59.322104  1019 net.cpp:436] predict_conv6 <- blob21_ReLU10_0_split_0
I1114 13:45:59.322118  1019 net.cpp:410] predict_conv6 -> blob22
I1114 13:45:59.324105  1019 net.cpp:145] Setting up predict_conv6
I1114 13:45:59.324121  1019 net.cpp:152] Top shape: 8 2 6 12 (1152)
I1114 13:45:59.324126  1019 net.cpp:160] Memory required for data: 1603070336
I1114 13:45:59.324137  1019 net.cpp:184] DEBUG: need_backward = 0
I1114 13:45:59.324146  1019 layer_factory.hpp:77] Creating layer deconv5
I1114 13:45:59.324160  1019 net.cpp:93] Creating Layer deconv5
I1114 13:45:59.324167  1019 net.cpp:436] deconv5 <- blob21_ReLU10_0_split_1
I1114 13:45:59.324177  1019 net.cpp:410] deconv5 -> blob23
I1114 13:45:59.370288  1019 net.cpp:145] Setting up deconv5
I1114 13:45:59.370337  1019 net.cpp:152] Top shape: 8 192 12 24 (442368)
I1114 13:45:59.370342  1019 net.cpp:160] Memory required for data: 1604839808
I1114 13:45:59.370353  1019 net.cpp:184] DEBUG: need_backward = 0
I1114 13:45:59.370359  1019 layer_factory.hpp:77] Creating layer ReLU11
I1114 13:45:59.370373  1019 net.cpp:93] Creating Layer ReLU11
I1114 13:45:59.370381  1019 net.cpp:436] ReLU11 <- blob23
I1114 13:45:59.370394  1019 net.cpp:397] ReLU11 -> blob23 (in-place)
I1114 13:45:59.370710  1019 net.cpp:145] Setting up ReLU11
I1114 13:45:59.370729  1019 net.cpp:152] Top shape: 8 192 12 24 (442368)
I1114 13:45:59.370739  1019 net.cpp:160] Memory required for data: 1606609280
I1114 13:45:59.370745  1019 net.cpp:184] DEBUG: need_backward = 0
I1114 13:45:59.370749  1019 layer_factory.hpp:77] Creating layer upsample_flow6to5
I1114 13:45:59.370764  1019 net.cpp:93] Creating Layer upsample_flow6to5
I1114 13:45:59.370770  1019 net.cpp:436] upsample_flow6to5 <- blob22
I1114 13:45:59.370780  1019 net.cpp:410] upsample_flow6to5 -> blob24
I1114 13:45:59.371151  1019 net.cpp:145] Setting up upsample_flow6to5
I1114 13:45:59.371168  1019 net.cpp:152] Top shape: 8 2 12 24 (4608)
I1114 13:45:59.371172  1019 net.cpp:160] Memory required for data: 1606627712
I1114 13:45:59.371181  1019 net.cpp:184] DEBUG: need_backward = 0
I1114 13:45:59.371186  1019 layer_factory.hpp:77] Creating layer Concat2
I1114 13:45:59.371193  1019 net.cpp:93] Creating Layer Concat2
I1114 13:45:59.371199  1019 net.cpp:436] Concat2 <- blob19_ReLU8_0_split_1
I1114 13:45:59.371248  1019 net.cpp:436] Concat2 <- blob23
I1114 13:45:59.371258  1019 net.cpp:436] Concat2 <- blob24
I1114 13:45:59.371268  1019 net.cpp:410] Concat2 -> blob25
I1114 13:45:59.371317  1019 net.cpp:145] Setting up Concat2
I1114 13:45:59.371345  1019 net.cpp:152] Top shape: 8 386 12 24 (889344)
I1114 13:45:59.371357  1019 net.cpp:160] Memory required for data: 1610185088
I1114 13:45:59.371366  1019 net.cpp:184] DEBUG: need_backward = 0
I1114 13:45:59.371378  1019 layer_factory.hpp:77] Creating layer blob25_Concat2_0_split
I1114 13:45:59.371393  1019 net.cpp:93] Creating Layer blob25_Concat2_0_split
I1114 13:45:59.371407  1019 net.cpp:436] blob25_Concat2_0_split <- blob25
I1114 13:45:59.371426  1019 net.cpp:410] blob25_Concat2_0_split -> blob25_Concat2_0_split_0
I1114 13:45:59.371446  1019 net.cpp:410] blob25_Concat2_0_split -> blob25_Concat2_0_split_1
I1114 13:45:59.371527  1019 net.cpp:145] Setting up blob25_Concat2_0_split
I1114 13:45:59.371542  1019 net.cpp:152] Top shape: 8 386 12 24 (889344)
I1114 13:45:59.371548  1019 net.cpp:152] Top shape: 8 386 12 24 (889344)
I1114 13:45:59.371553  1019 net.cpp:160] Memory required for data: 1617299840
I1114 13:45:59.371562  1019 net.cpp:184] DEBUG: need_backward = 0
I1114 13:45:59.371569  1019 layer_factory.hpp:77] Creating layer predict_conv5
I1114 13:45:59.371592  1019 net.cpp:93] Creating Layer predict_conv5
I1114 13:45:59.371608  1019 net.cpp:436] predict_conv5 <- blob25_Concat2_0_split_0
I1114 13:45:59.371621  1019 net.cpp:410] predict_conv5 -> blob26
I1114 13:45:59.373735  1019 net.cpp:145] Setting up predict_conv5
I1114 13:45:59.373752  1019 net.cpp:152] Top shape: 8 2 12 24 (4608)
I1114 13:45:59.373760  1019 net.cpp:160] Memory required for data: 1617318272
I1114 13:45:59.373786  1019 net.cpp:184] DEBUG: need_backward = 0
I1114 13:45:59.373800  1019 layer_factory.hpp:77] Creating layer deconv4
I1114 13:45:59.373817  1019 net.cpp:93] Creating Layer deconv4
I1114 13:45:59.373829  1019 net.cpp:436] deconv4 <- blob25_Concat2_0_split_1
I1114 13:45:59.373845  1019 net.cpp:410] deconv4 -> blob27
I1114 13:45:59.397060  1019 net.cpp:145] Setting up deconv4
I1114 13:45:59.397092  1019 net.cpp:152] Top shape: 8 96 24 48 (884736)
I1114 13:45:59.397097  1019 net.cpp:160] Memory required for data: 1620857216
I1114 13:45:59.397106  1019 net.cpp:184] DEBUG: need_backward = 0
I1114 13:45:59.397114  1019 layer_factory.hpp:77] Creating layer ReLU12
I1114 13:45:59.397125  1019 net.cpp:93] Creating Layer ReLU12
I1114 13:45:59.397132  1019 net.cpp:436] ReLU12 <- blob27
I1114 13:45:59.397145  1019 net.cpp:397] ReLU12 -> blob27 (in-place)
I1114 13:45:59.397434  1019 net.cpp:145] Setting up ReLU12
I1114 13:45:59.397450  1019 net.cpp:152] Top shape: 8 96 24 48 (884736)
I1114 13:45:59.397455  1019 net.cpp:160] Memory required for data: 1624396160
I1114 13:45:59.397459  1019 net.cpp:184] DEBUG: need_backward = 0
I1114 13:45:59.397464  1019 layer_factory.hpp:77] Creating layer upsample_flow5to4
I1114 13:45:59.397476  1019 net.cpp:93] Creating Layer upsample_flow5to4
I1114 13:45:59.397482  1019 net.cpp:436] upsample_flow5to4 <- blob26
I1114 13:45:59.397491  1019 net.cpp:410] upsample_flow5to4 -> blob28
I1114 13:45:59.397832  1019 net.cpp:145] Setting up upsample_flow5to4
I1114 13:45:59.397847  1019 net.cpp:152] Top shape: 8 2 24 48 (18432)
I1114 13:45:59.397852  1019 net.cpp:160] Memory required for data: 1624469888
I1114 13:45:59.397861  1019 net.cpp:184] DEBUG: need_backward = 0
I1114 13:45:59.397869  1019 layer_factory.hpp:77] Creating layer Concat3
I1114 13:45:59.397886  1019 net.cpp:93] Creating Layer Concat3
I1114 13:45:59.397902  1019 net.cpp:436] Concat3 <- blob17_ReLU6_0_split_1
I1114 13:45:59.397908  1019 net.cpp:436] Concat3 <- blob27
I1114 13:45:59.397917  1019 net.cpp:436] Concat3 <- blob28
I1114 13:45:59.397929  1019 net.cpp:410] Concat3 -> blob29
I1114 13:45:59.398005  1019 net.cpp:145] Setting up Concat3
I1114 13:45:59.398020  1019 net.cpp:152] Top shape: 8 290 24 48 (2672640)
I1114 13:45:59.398025  1019 net.cpp:160] Memory required for data: 1635160448
I1114 13:45:59.398066  1019 net.cpp:184] DEBUG: need_backward = 0
I1114 13:45:59.398074  1019 layer_factory.hpp:77] Creating layer blob29_Concat3_0_split
I1114 13:45:59.398082  1019 net.cpp:93] Creating Layer blob29_Concat3_0_split
I1114 13:45:59.398090  1019 net.cpp:436] blob29_Concat3_0_split <- blob29
I1114 13:45:59.398097  1019 net.cpp:410] blob29_Concat3_0_split -> blob29_Concat3_0_split_0
I1114 13:45:59.398108  1019 net.cpp:410] blob29_Concat3_0_split -> blob29_Concat3_0_split_1
I1114 13:45:59.398171  1019 net.cpp:145] Setting up blob29_Concat3_0_split
I1114 13:45:59.398188  1019 net.cpp:152] Top shape: 8 290 24 48 (2672640)
I1114 13:45:59.398196  1019 net.cpp:152] Top shape: 8 290 24 48 (2672640)
I1114 13:45:59.398200  1019 net.cpp:160] Memory required for data: 1656541568
I1114 13:45:59.398207  1019 net.cpp:184] DEBUG: need_backward = 0
I1114 13:45:59.398211  1019 layer_factory.hpp:77] Creating layer predict_conv4
I1114 13:45:59.398226  1019 net.cpp:93] Creating Layer predict_conv4
I1114 13:45:59.398233  1019 net.cpp:436] predict_conv4 <- blob29_Concat3_0_split_0
I1114 13:45:59.398244  1019 net.cpp:410] predict_conv4 -> blob30
I1114 13:45:59.399895  1019 net.cpp:145] Setting up predict_conv4
I1114 13:45:59.399911  1019 net.cpp:152] Top shape: 8 2 24 48 (18432)
I1114 13:45:59.399917  1019 net.cpp:160] Memory required for data: 1656615296
I1114 13:45:59.399929  1019 net.cpp:184] DEBUG: need_backward = 0
I1114 13:45:59.399935  1019 layer_factory.hpp:77] Creating layer deconv3
I1114 13:45:59.399946  1019 net.cpp:93] Creating Layer deconv3
I1114 13:45:59.399955  1019 net.cpp:436] deconv3 <- blob29_Concat3_0_split_1
I1114 13:45:59.399966  1019 net.cpp:410] deconv3 -> blob31
I1114 13:45:59.409512  1019 net.cpp:145] Setting up deconv3
I1114 13:45:59.409533  1019 net.cpp:152] Top shape: 8 48 48 96 (1769472)
I1114 13:45:59.409538  1019 net.cpp:160] Memory required for data: 1663693184
I1114 13:45:59.409548  1019 net.cpp:184] DEBUG: need_backward = 0
I1114 13:45:59.409552  1019 layer_factory.hpp:77] Creating layer ReLU13
I1114 13:45:59.409561  1019 net.cpp:93] Creating Layer ReLU13
I1114 13:45:59.409567  1019 net.cpp:436] ReLU13 <- blob31
I1114 13:45:59.409577  1019 net.cpp:397] ReLU13 -> blob31 (in-place)
I1114 13:45:59.409826  1019 net.cpp:145] Setting up ReLU13
I1114 13:45:59.409842  1019 net.cpp:152] Top shape: 8 48 48 96 (1769472)
I1114 13:45:59.409847  1019 net.cpp:160] Memory required for data: 1670771072
I1114 13:45:59.409850  1019 net.cpp:184] DEBUG: need_backward = 0
I1114 13:45:59.409855  1019 layer_factory.hpp:77] Creating layer upsample_flow4to3
I1114 13:45:59.409867  1019 net.cpp:93] Creating Layer upsample_flow4to3
I1114 13:45:59.409873  1019 net.cpp:436] upsample_flow4to3 <- blob30
I1114 13:45:59.409881  1019 net.cpp:410] upsample_flow4to3 -> blob32
I1114 13:45:59.410230  1019 net.cpp:145] Setting up upsample_flow4to3
I1114 13:45:59.410246  1019 net.cpp:152] Top shape: 8 2 48 96 (73728)
I1114 13:45:59.410250  1019 net.cpp:160] Memory required for data: 1671065984
I1114 13:45:59.410259  1019 net.cpp:184] DEBUG: need_backward = 0
I1114 13:45:59.410264  1019 layer_factory.hpp:77] Creating layer Concat4
I1114 13:45:59.410270  1019 net.cpp:93] Creating Layer Concat4
I1114 13:45:59.410276  1019 net.cpp:436] Concat4 <- blob15_ReLU4_0_split_1
I1114 13:45:59.410282  1019 net.cpp:436] Concat4 <- blob31
I1114 13:45:59.410289  1019 net.cpp:436] Concat4 <- blob32
I1114 13:45:59.410296  1019 net.cpp:410] Concat4 -> blob33
I1114 13:45:59.410336  1019 net.cpp:145] Setting up Concat4
I1114 13:45:59.410346  1019 net.cpp:152] Top shape: 8 146 48 96 (5382144)
I1114 13:45:59.410351  1019 net.cpp:160] Memory required for data: 1692594560
I1114 13:45:59.410356  1019 net.cpp:184] DEBUG: need_backward = 0
I1114 13:45:59.410360  1019 layer_factory.hpp:77] Creating layer blob33_Concat4_0_split
I1114 13:45:59.410369  1019 net.cpp:93] Creating Layer blob33_Concat4_0_split
I1114 13:45:59.410374  1019 net.cpp:436] blob33_Concat4_0_split <- blob33
I1114 13:45:59.410382  1019 net.cpp:410] blob33_Concat4_0_split -> blob33_Concat4_0_split_0
I1114 13:45:59.410411  1019 net.cpp:410] blob33_Concat4_0_split -> blob33_Concat4_0_split_1
I1114 13:45:59.410486  1019 net.cpp:145] Setting up blob33_Concat4_0_split
I1114 13:45:59.410501  1019 net.cpp:152] Top shape: 8 146 48 96 (5382144)
I1114 13:45:59.410506  1019 net.cpp:152] Top shape: 8 146 48 96 (5382144)
I1114 13:45:59.410511  1019 net.cpp:160] Memory required for data: 1735651712
I1114 13:45:59.410514  1019 net.cpp:184] DEBUG: need_backward = 0
I1114 13:45:59.410519  1019 layer_factory.hpp:77] Creating layer predict_conv3
I1114 13:45:59.410536  1019 net.cpp:93] Creating Layer predict_conv3
I1114 13:45:59.410548  1019 net.cpp:436] predict_conv3 <- blob33_Concat4_0_split_0
I1114 13:45:59.410564  1019 net.cpp:410] predict_conv3 -> blob34
I1114 13:45:59.412084  1019 net.cpp:145] Setting up predict_conv3
I1114 13:45:59.412101  1019 net.cpp:152] Top shape: 8 2 48 96 (73728)
I1114 13:45:59.412106  1019 net.cpp:160] Memory required for data: 1735946624
I1114 13:45:59.412114  1019 net.cpp:184] DEBUG: need_backward = 0
I1114 13:45:59.412119  1019 layer_factory.hpp:77] Creating layer deconv2
I1114 13:45:59.412132  1019 net.cpp:93] Creating Layer deconv2
I1114 13:45:59.412138  1019 net.cpp:436] deconv2 <- blob33_Concat4_0_split_1
I1114 13:45:59.412148  1019 net.cpp:410] deconv2 -> blob35
I1114 13:45:59.414666  1019 net.cpp:145] Setting up deconv2
I1114 13:45:59.414682  1019 net.cpp:152] Top shape: 8 24 96 192 (3538944)
I1114 13:45:59.414687  1019 net.cpp:160] Memory required for data: 1750102400
I1114 13:45:59.414695  1019 net.cpp:184] DEBUG: need_backward = 0
I1114 13:45:59.414700  1019 layer_factory.hpp:77] Creating layer ReLU14
I1114 13:45:59.414719  1019 net.cpp:93] Creating Layer ReLU14
I1114 13:45:59.414726  1019 net.cpp:436] ReLU14 <- blob35
I1114 13:45:59.414733  1019 net.cpp:397] ReLU14 -> blob35 (in-place)
I1114 13:45:59.415333  1019 net.cpp:145] Setting up ReLU14
I1114 13:45:59.415349  1019 net.cpp:152] Top shape: 8 24 96 192 (3538944)
I1114 13:45:59.415355  1019 net.cpp:160] Memory required for data: 1764258176
I1114 13:45:59.415359  1019 net.cpp:184] DEBUG: need_backward = 0
I1114 13:45:59.415364  1019 layer_factory.hpp:77] Creating layer upsample_flow3to2
I1114 13:45:59.415375  1019 net.cpp:93] Creating Layer upsample_flow3to2
I1114 13:45:59.415381  1019 net.cpp:436] upsample_flow3to2 <- blob34
I1114 13:45:59.415390  1019 net.cpp:410] upsample_flow3to2 -> blob36
I1114 13:45:59.415756  1019 net.cpp:145] Setting up upsample_flow3to2
I1114 13:45:59.415772  1019 net.cpp:152] Top shape: 8 2 96 192 (294912)
I1114 13:45:59.415776  1019 net.cpp:160] Memory required for data: 1765437824
I1114 13:45:59.415784  1019 net.cpp:184] DEBUG: need_backward = 0
I1114 13:45:59.415789  1019 layer_factory.hpp:77] Creating layer Concat5
I1114 13:45:59.415797  1019 net.cpp:93] Creating Layer Concat5
I1114 13:45:59.415802  1019 net.cpp:436] Concat5 <- blob13_ReLU2_0_split_1
I1114 13:45:59.415809  1019 net.cpp:436] Concat5 <- blob35
I1114 13:45:59.415814  1019 net.cpp:436] Concat5 <- blob36
I1114 13:45:59.415823  1019 net.cpp:410] Concat5 -> blob37
I1114 13:45:59.415860  1019 net.cpp:145] Setting up Concat5
I1114 13:45:59.415874  1019 net.cpp:152] Top shape: 8 74 96 192 (10911744)
I1114 13:45:59.415879  1019 net.cpp:160] Memory required for data: 1809084800
I1114 13:45:59.415884  1019 net.cpp:184] DEBUG: need_backward = 0
I1114 13:45:59.415889  1019 layer_factory.hpp:77] Creating layer predict_conv2
I1114 13:45:59.415901  1019 net.cpp:93] Creating Layer predict_conv2
I1114 13:45:59.415907  1019 net.cpp:436] predict_conv2 <- blob37
I1114 13:45:59.415915  1019 net.cpp:410] predict_conv2 -> blob38
I1114 13:45:59.417054  1019 net.cpp:145] Setting up predict_conv2
I1114 13:45:59.417071  1019 net.cpp:152] Top shape: 8 2 96 192 (294912)
I1114 13:45:59.417076  1019 net.cpp:160] Memory required for data: 1810264448
I1114 13:45:59.417084  1019 net.cpp:184] DEBUG: need_backward = 0
I1114 13:45:59.417089  1019 layer_factory.hpp:77] Creating layer Eltwise4
I1114 13:45:59.417100  1019 net.cpp:93] Creating Layer Eltwise4
I1114 13:45:59.417122  1019 net.cpp:436] Eltwise4 <- blob38
I1114 13:45:59.417135  1019 net.cpp:410] Eltwise4 -> blob39
I1114 13:45:59.417176  1019 net.cpp:145] Setting up Eltwise4
I1114 13:45:59.417187  1019 net.cpp:152] Top shape: 8 2 96 192 (294912)
I1114 13:45:59.417192  1019 net.cpp:160] Memory required for data: 1811444096
I1114 13:45:59.417196  1019 net.cpp:184] DEBUG: need_backward = 0
I1114 13:45:59.417201  1019 layer_factory.hpp:77] Creating layer Accum1
I1114 13:45:59.417212  1019 net.cpp:93] Creating Layer Accum1
I1114 13:45:59.417220  1019 net.cpp:436] Accum1 <- blob39
I1114 13:45:59.417227  1019 net.cpp:436] Accum1 <- img0_aug_img0s_aug_0_split_2
I1114 13:45:59.417234  1019 net.cpp:410] Accum1 -> blob40
I1114 13:45:59.417287  1019 net.cpp:145] Setting up Accum1
I1114 13:45:59.417302  1019 net.cpp:152] Top shape: 8 2 384 768 (4718592)
I1114 13:45:59.417306  1019 net.cpp:160] Memory required for data: 1830318464
I1114 13:45:59.417311  1019 net.cpp:184] DEBUG: need_backward = 0
I1114 13:45:59.417318  1019 layer_factory.hpp:77] Creating layer blob40_Accum1_0_split
I1114 13:45:59.417326  1019 net.cpp:93] Creating Layer blob40_Accum1_0_split
I1114 13:45:59.417332  1019 net.cpp:436] blob40_Accum1_0_split <- blob40
I1114 13:45:59.417346  1019 net.cpp:410] blob40_Accum1_0_split -> blob40_Accum1_0_split_0
I1114 13:45:59.417382  1019 net.cpp:410] blob40_Accum1_0_split -> blob40_Accum1_0_split_1
I1114 13:45:59.417451  1019 net.cpp:145] Setting up blob40_Accum1_0_split
I1114 13:45:59.417465  1019 net.cpp:152] Top shape: 8 2 384 768 (4718592)
I1114 13:45:59.417474  1019 net.cpp:152] Top shape: 8 2 384 768 (4718592)
I1114 13:45:59.417480  1019 net.cpp:160] Memory required for data: 1868067200
I1114 13:45:59.417485  1019 net.cpp:184] DEBUG: need_backward = 0
I1114 13:45:59.417490  1019 layer_factory.hpp:77] Creating layer FlowWarp1
I1114 13:45:59.417500  1019 net.cpp:93] Creating Layer FlowWarp1
I1114 13:45:59.417508  1019 net.cpp:436] FlowWarp1 <- img1_aug_img1s_aug_0_split_1
I1114 13:45:59.417515  1019 net.cpp:436] FlowWarp1 <- blob40_Accum1_0_split_0
I1114 13:45:59.417523  1019 net.cpp:410] FlowWarp1 -> blob41
I1114 13:45:59.417590  1019 net.cpp:145] Setting up FlowWarp1
I1114 13:45:59.417604  1019 net.cpp:152] Top shape: 8 3 384 768 (7077888)
I1114 13:45:59.417609  1019 net.cpp:160] Memory required for data: 1896378752
I1114 13:45:59.417613  1019 net.cpp:184] DEBUG: need_backward = 0
I1114 13:45:59.417618  1019 layer_factory.hpp:77] Creating layer blob41_FlowWarp1_0_split
I1114 13:45:59.417628  1019 net.cpp:93] Creating Layer blob41_FlowWarp1_0_split
I1114 13:45:59.417635  1019 net.cpp:436] blob41_FlowWarp1_0_split <- blob41
I1114 13:45:59.417642  1019 net.cpp:410] blob41_FlowWarp1_0_split -> blob41_FlowWarp1_0_split_0
I1114 13:45:59.417650  1019 net.cpp:410] blob41_FlowWarp1_0_split -> blob41_FlowWarp1_0_split_1
I1114 13:45:59.417713  1019 net.cpp:145] Setting up blob41_FlowWarp1_0_split
I1114 13:45:59.417727  1019 net.cpp:152] Top shape: 8 3 384 768 (7077888)
I1114 13:45:59.417733  1019 net.cpp:152] Top shape: 8 3 384 768 (7077888)
I1114 13:45:59.417737  1019 net.cpp:160] Memory required for data: 1953001856
I1114 13:45:59.417742  1019 net.cpp:184] DEBUG: need_backward = 0
I1114 13:45:59.417747  1019 layer_factory.hpp:77] Creating layer Eltwise5
I1114 13:45:59.417754  1019 net.cpp:93] Creating Layer Eltwise5
I1114 13:45:59.417759  1019 net.cpp:436] Eltwise5 <- img0_aug_img0s_aug_0_split_3
I1114 13:45:59.417767  1019 net.cpp:436] Eltwise5 <- blob41_FlowWarp1_0_split_0
I1114 13:45:59.417778  1019 net.cpp:410] Eltwise5 -> blob42
I1114 13:45:59.417819  1019 net.cpp:145] Setting up Eltwise5
I1114 13:45:59.417834  1019 net.cpp:152] Top shape: 8 3 384 768 (7077888)
I1114 13:45:59.417840  1019 net.cpp:160] Memory required for data: 1981313408
I1114 13:45:59.417843  1019 net.cpp:184] DEBUG: need_backward = 0
I1114 13:45:59.417848  1019 layer_factory.hpp:77] Creating layer ChannelNorm1
I1114 13:45:59.417865  1019 net.cpp:93] Creating Layer ChannelNorm1
I1114 13:45:59.417874  1019 net.cpp:436] ChannelNorm1 <- blob42
I1114 13:45:59.417882  1019 net.cpp:410] ChannelNorm1 -> blob43
I1114 13:45:59.417948  1019 net.cpp:145] Setting up ChannelNorm1
I1114 13:45:59.417963  1019 net.cpp:152] Top shape: 8 1 384 768 (2359296)
I1114 13:45:59.417968  1019 net.cpp:160] Memory required for data: 1990750592
I1114 13:45:59.417973  1019 net.cpp:184] DEBUG: need_backward = 0
I1114 13:45:59.417978  1019 layer_factory.hpp:77] Creating layer Eltwise6
I1114 13:45:59.417986  1019 net.cpp:93] Creating Layer Eltwise6
I1114 13:45:59.417997  1019 net.cpp:436] Eltwise6 <- blob40_Accum1_0_split_1
I1114 13:45:59.418004  1019 net.cpp:410] Eltwise6 -> blob44
I1114 13:45:59.418051  1019 net.cpp:145] Setting up Eltwise6
I1114 13:45:59.418071  1019 net.cpp:152] Top shape: 8 2 384 768 (4718592)
I1114 13:45:59.418077  1019 net.cpp:160] Memory required for data: 2009624960
I1114 13:45:59.418082  1019 net.cpp:184] DEBUG: need_backward = 0
I1114 13:45:59.418088  1019 layer_factory.hpp:77] Creating layer Concat6
I1114 13:45:59.418099  1019 net.cpp:93] Creating Layer Concat6
I1114 13:45:59.418107  1019 net.cpp:436] Concat6 <- img0_aug_img0s_aug_0_split_4
I1114 13:45:59.418114  1019 net.cpp:436] Concat6 <- img1_aug_img1s_aug_0_split_2
I1114 13:45:59.418120  1019 net.cpp:436] Concat6 <- blob41_FlowWarp1_0_split_1
I1114 13:45:59.418128  1019 net.cpp:436] Concat6 <- blob44
I1114 13:45:59.418133  1019 net.cpp:436] Concat6 <- blob43
I1114 13:45:59.418140  1019 net.cpp:410] Concat6 -> blob45
I1114 13:45:59.418193  1019 net.cpp:145] Setting up Concat6
I1114 13:45:59.418208  1019 net.cpp:152] Top shape: 8 12 384 768 (28311552)
I1114 13:45:59.418213  1019 net.cpp:160] Memory required for data: 2122871168
I1114 13:45:59.418217  1019 net.cpp:184] DEBUG: need_backward = 0
I1114 13:45:59.418222  1019 layer_factory.hpp:77] Creating layer Eltwise7
I1114 13:45:59.418231  1019 net.cpp:93] Creating Layer Eltwise7
I1114 13:45:59.418241  1019 net.cpp:436] Eltwise7 <- flow_gt_aug_FlowAugmentation1_0_split_1
I1114 13:45:59.418252  1019 net.cpp:410] Eltwise7 -> blob46
I1114 13:45:59.418293  1019 net.cpp:145] Setting up Eltwise7
I1114 13:45:59.418311  1019 net.cpp:152] Top shape: 8 2 384 768 (4718592)
I1114 13:45:59.418321  1019 net.cpp:160] Memory required for data: 2141745536
I1114 13:45:59.418326  1019 net.cpp:184] DEBUG: need_backward = 0
I1114 13:45:59.418332  1019 layer_factory.hpp:77] Creating layer blob46_Eltwise7_0_split
I1114 13:45:59.418349  1019 net.cpp:93] Creating Layer blob46_Eltwise7_0_split
I1114 13:45:59.418356  1019 net.cpp:436] blob46_Eltwise7_0_split <- blob46
I1114 13:45:59.418364  1019 net.cpp:410] blob46_Eltwise7_0_split -> blob46_Eltwise7_0_split_0
I1114 13:45:59.418372  1019 net.cpp:410] blob46_Eltwise7_0_split -> blob46_Eltwise7_0_split_1
I1114 13:45:59.418382  1019 net.cpp:410] blob46_Eltwise7_0_split -> blob46_Eltwise7_0_split_2
I1114 13:45:59.418397  1019 net.cpp:410] blob46_Eltwise7_0_split -> blob46_Eltwise7_0_split_3
I1114 13:45:59.418416  1019 net.cpp:410] blob46_Eltwise7_0_split -> blob46_Eltwise7_0_split_4
I1114 13:45:59.418546  1019 net.cpp:145] Setting up blob46_Eltwise7_0_split
I1114 13:45:59.418562  1019 net.cpp:152] Top shape: 8 2 384 768 (4718592)
I1114 13:45:59.418568  1019 net.cpp:152] Top shape: 8 2 384 768 (4718592)
I1114 13:45:59.418575  1019 net.cpp:152] Top shape: 8 2 384 768 (4718592)
I1114 13:45:59.418579  1019 net.cpp:152] Top shape: 8 2 384 768 (4718592)
I1114 13:45:59.418586  1019 net.cpp:152] Top shape: 8 2 384 768 (4718592)
I1114 13:45:59.418593  1019 net.cpp:160] Memory required for data: 2236117376
I1114 13:45:59.418601  1019 net.cpp:184] DEBUG: need_backward = 0
I1114 13:45:59.418606  1019 layer_factory.hpp:77] Creating layer net2_conv1
I1114 13:45:59.418620  1019 net.cpp:93] Creating Layer net2_conv1
I1114 13:45:59.418627  1019 net.cpp:436] net2_conv1 <- blob45
I1114 13:45:59.418637  1019 net.cpp:410] net2_conv1 -> blob47
I1114 13:45:59.421293  1019 net.cpp:145] Setting up net2_conv1
I1114 13:45:59.421309  1019 net.cpp:152] Top shape: 8 24 192 384 (14155776)
I1114 13:45:59.421314  1019 net.cpp:160] Memory required for data: 2292740480
I1114 13:45:59.421325  1019 net.cpp:184] DEBUG: need_backward = 1
I1114 13:45:59.421347  1019 layer_factory.hpp:77] Creating layer ReLU15
I1114 13:45:59.421357  1019 net.cpp:93] Creating Layer ReLU15
I1114 13:45:59.421365  1019 net.cpp:436] ReLU15 <- blob47
I1114 13:45:59.421380  1019 net.cpp:397] ReLU15 -> blob47 (in-place)
I1114 13:45:59.421970  1019 net.cpp:145] Setting up ReLU15
I1114 13:45:59.421986  1019 net.cpp:152] Top shape: 8 24 192 384 (14155776)
I1114 13:45:59.421991  1019 net.cpp:160] Memory required for data: 2349363584
I1114 13:45:59.421996  1019 net.cpp:184] DEBUG: need_backward = 1
I1114 13:45:59.422000  1019 layer_factory.hpp:77] Creating layer net2_conv2
I1114 13:45:59.422013  1019 net.cpp:93] Creating Layer net2_conv2
I1114 13:45:59.422021  1019 net.cpp:436] net2_conv2 <- blob47
I1114 13:45:59.422031  1019 net.cpp:410] net2_conv2 -> blob48
I1114 13:45:59.424165  1019 net.cpp:145] Setting up net2_conv2
I1114 13:45:59.424181  1019 net.cpp:152] Top shape: 8 48 96 192 (7077888)
I1114 13:45:59.424186  1019 net.cpp:160] Memory required for data: 2377675136
I1114 13:45:59.424196  1019 net.cpp:184] DEBUG: need_backward = 1
I1114 13:45:59.424201  1019 layer_factory.hpp:77] Creating layer ReLU16
I1114 13:45:59.424226  1019 net.cpp:93] Creating Layer ReLU16
I1114 13:45:59.424235  1019 net.cpp:436] ReLU16 <- blob48
I1114 13:45:59.424242  1019 net.cpp:397] ReLU16 -> blob48 (in-place)
I1114 13:45:59.424810  1019 net.cpp:145] Setting up ReLU16
I1114 13:45:59.424826  1019 net.cpp:152] Top shape: 8 48 96 192 (7077888)
I1114 13:45:59.424831  1019 net.cpp:160] Memory required for data: 2405986688
I1114 13:45:59.424835  1019 net.cpp:184] DEBUG: need_backward = 1
I1114 13:45:59.424840  1019 layer_factory.hpp:77] Creating layer blob48_ReLU16_0_split
I1114 13:45:59.424847  1019 net.cpp:93] Creating Layer blob48_ReLU16_0_split
I1114 13:45:59.424855  1019 net.cpp:436] blob48_ReLU16_0_split <- blob48
I1114 13:45:59.424865  1019 net.cpp:410] blob48_ReLU16_0_split -> blob48_ReLU16_0_split_0
I1114 13:45:59.424876  1019 net.cpp:410] blob48_ReLU16_0_split -> blob48_ReLU16_0_split_1
I1114 13:45:59.424934  1019 net.cpp:145] Setting up blob48_ReLU16_0_split
I1114 13:45:59.424947  1019 net.cpp:152] Top shape: 8 48 96 192 (7077888)
I1114 13:45:59.424954  1019 net.cpp:152] Top shape: 8 48 96 192 (7077888)
I1114 13:45:59.424964  1019 net.cpp:160] Memory required for data: 2462609792
I1114 13:45:59.424975  1019 net.cpp:184] DEBUG: need_backward = 1
I1114 13:45:59.424981  1019 layer_factory.hpp:77] Creating layer net2_conv3
I1114 13:45:59.424995  1019 net.cpp:93] Creating Layer net2_conv3
I1114 13:45:59.425001  1019 net.cpp:436] net2_conv3 <- blob48_ReLU16_0_split_0
I1114 13:45:59.425011  1019 net.cpp:410] net2_conv3 -> blob49
I1114 13:45:59.430629  1019 net.cpp:145] Setting up net2_conv3
I1114 13:45:59.430649  1019 net.cpp:152] Top shape: 8 96 48 96 (3538944)
I1114 13:45:59.430655  1019 net.cpp:160] Memory required for data: 2476765568
I1114 13:45:59.430663  1019 net.cpp:184] DEBUG: need_backward = 1
I1114 13:45:59.430671  1019 layer_factory.hpp:77] Creating layer ReLU17
I1114 13:45:59.430680  1019 net.cpp:93] Creating Layer ReLU17
I1114 13:45:59.430685  1019 net.cpp:436] ReLU17 <- blob49
I1114 13:45:59.430711  1019 net.cpp:397] ReLU17 -> blob49 (in-place)
I1114 13:45:59.430944  1019 net.cpp:145] Setting up ReLU17
I1114 13:45:59.430960  1019 net.cpp:152] Top shape: 8 96 48 96 (3538944)
I1114 13:45:59.430965  1019 net.cpp:160] Memory required for data: 2490921344
I1114 13:45:59.430969  1019 net.cpp:184] DEBUG: need_backward = 1
I1114 13:45:59.430974  1019 layer_factory.hpp:77] Creating layer net2_conv3_1
I1114 13:45:59.430987  1019 net.cpp:93] Creating Layer net2_conv3_1
I1114 13:45:59.430994  1019 net.cpp:436] net2_conv3_1 <- blob49
I1114 13:45:59.431005  1019 net.cpp:410] net2_conv3_1 -> blob50
I1114 13:45:59.435788  1019 net.cpp:145] Setting up net2_conv3_1
I1114 13:45:59.435806  1019 net.cpp:152] Top shape: 8 96 48 96 (3538944)
I1114 13:45:59.435811  1019 net.cpp:160] Memory required for data: 2505077120
I1114 13:45:59.435820  1019 net.cpp:184] DEBUG: need_backward = 1
I1114 13:45:59.435845  1019 layer_factory.hpp:77] Creating layer ReLU18
I1114 13:45:59.435854  1019 net.cpp:93] Creating Layer ReLU18
I1114 13:45:59.435863  1019 net.cpp:436] ReLU18 <- blob50
I1114 13:45:59.435871  1019 net.cpp:397] ReLU18 -> blob50 (in-place)
I1114 13:45:59.436118  1019 net.cpp:145] Setting up ReLU18
I1114 13:45:59.436133  1019 net.cpp:152] Top shape: 8 96 48 96 (3538944)
I1114 13:45:59.436137  1019 net.cpp:160] Memory required for data: 2519232896
I1114 13:45:59.436142  1019 net.cpp:184] DEBUG: need_backward = 1
I1114 13:45:59.436146  1019 layer_factory.hpp:77] Creating layer blob50_ReLU18_0_split
I1114 13:45:59.436156  1019 net.cpp:93] Creating Layer blob50_ReLU18_0_split
I1114 13:45:59.436161  1019 net.cpp:436] blob50_ReLU18_0_split <- blob50
I1114 13:45:59.436168  1019 net.cpp:410] blob50_ReLU18_0_split -> blob50_ReLU18_0_split_0
I1114 13:45:59.436179  1019 net.cpp:410] blob50_ReLU18_0_split -> blob50_ReLU18_0_split_1
I1114 13:45:59.436270  1019 net.cpp:145] Setting up blob50_ReLU18_0_split
I1114 13:45:59.436285  1019 net.cpp:152] Top shape: 8 96 48 96 (3538944)
I1114 13:45:59.436292  1019 net.cpp:152] Top shape: 8 96 48 96 (3538944)
I1114 13:45:59.436296  1019 net.cpp:160] Memory required for data: 2547544448
I1114 13:45:59.436300  1019 net.cpp:184] DEBUG: need_backward = 1
I1114 13:45:59.436305  1019 layer_factory.hpp:77] Creating layer net2_conv4
I1114 13:45:59.436319  1019 net.cpp:93] Creating Layer net2_conv4
I1114 13:45:59.436326  1019 net.cpp:436] net2_conv4 <- blob50_ReLU18_0_split_0
I1114 13:45:59.436336  1019 net.cpp:410] net2_conv4 -> blob51
I1114 13:45:59.443915  1019 net.cpp:145] Setting up net2_conv4
I1114 13:45:59.443933  1019 net.cpp:152] Top shape: 8 192 24 48 (1769472)
I1114 13:45:59.443938  1019 net.cpp:160] Memory required for data: 2554622336
I1114 13:45:59.443948  1019 net.cpp:184] DEBUG: need_backward = 1
I1114 13:45:59.443953  1019 layer_factory.hpp:77] Creating layer ReLU19
I1114 13:45:59.443961  1019 net.cpp:93] Creating Layer ReLU19
I1114 13:45:59.443967  1019 net.cpp:436] ReLU19 <- blob51
I1114 13:45:59.443976  1019 net.cpp:397] ReLU19 -> blob51 (in-place)
I1114 13:45:59.444206  1019 net.cpp:145] Setting up ReLU19
I1114 13:45:59.444231  1019 net.cpp:152] Top shape: 8 192 24 48 (1769472)
I1114 13:45:59.444236  1019 net.cpp:160] Memory required for data: 2561700224
I1114 13:45:59.444242  1019 net.cpp:184] DEBUG: need_backward = 1
I1114 13:45:59.444249  1019 layer_factory.hpp:77] Creating layer net2_conv4_1
I1114 13:45:59.444270  1019 net.cpp:93] Creating Layer net2_conv4_1
I1114 13:45:59.444279  1019 net.cpp:436] net2_conv4_1 <- blob51
I1114 13:45:59.444288  1019 net.cpp:410] net2_conv4_1 -> blob52
I1114 13:45:59.459033  1019 net.cpp:145] Setting up net2_conv4_1
I1114 13:45:59.459055  1019 net.cpp:152] Top shape: 8 192 24 48 (1769472)
I1114 13:45:59.459061  1019 net.cpp:160] Memory required for data: 2568778112
I1114 13:45:59.459072  1019 net.cpp:184] DEBUG: need_backward = 1
I1114 13:45:59.459077  1019 layer_factory.hpp:77] Creating layer ReLU20
I1114 13:45:59.459087  1019 net.cpp:93] Creating Layer ReLU20
I1114 13:45:59.459094  1019 net.cpp:436] ReLU20 <- blob52
I1114 13:45:59.459103  1019 net.cpp:397] ReLU20 -> blob52 (in-place)
I1114 13:45:59.459331  1019 net.cpp:145] Setting up ReLU20
I1114 13:45:59.459345  1019 net.cpp:152] Top shape: 8 192 24 48 (1769472)
I1114 13:45:59.459350  1019 net.cpp:160] Memory required for data: 2575856000
I1114 13:45:59.459355  1019 net.cpp:184] DEBUG: need_backward = 1
I1114 13:45:59.459360  1019 layer_factory.hpp:77] Creating layer blob52_ReLU20_0_split
I1114 13:45:59.459369  1019 net.cpp:93] Creating Layer blob52_ReLU20_0_split
I1114 13:45:59.459377  1019 net.cpp:436] blob52_ReLU20_0_split <- blob52
I1114 13:45:59.459384  1019 net.cpp:410] blob52_ReLU20_0_split -> blob52_ReLU20_0_split_0
I1114 13:45:59.459395  1019 net.cpp:410] blob52_ReLU20_0_split -> blob52_ReLU20_0_split_1
I1114 13:45:59.459465  1019 net.cpp:145] Setting up blob52_ReLU20_0_split
I1114 13:45:59.459478  1019 net.cpp:152] Top shape: 8 192 24 48 (1769472)
I1114 13:45:59.459514  1019 net.cpp:152] Top shape: 8 192 24 48 (1769472)
I1114 13:45:59.459525  1019 net.cpp:160] Memory required for data: 2590011776
I1114 13:45:59.459532  1019 net.cpp:184] DEBUG: need_backward = 1
I1114 13:45:59.459537  1019 layer_factory.hpp:77] Creating layer net2_conv5
I1114 13:45:59.459553  1019 net.cpp:93] Creating Layer net2_conv5
I1114 13:45:59.459558  1019 net.cpp:436] net2_conv5 <- blob52_ReLU20_0_split_0
I1114 13:45:59.459569  1019 net.cpp:410] net2_conv5 -> blob53
I1114 13:45:59.474227  1019 net.cpp:145] Setting up net2_conv5
I1114 13:45:59.474251  1019 net.cpp:152] Top shape: 8 192 12 24 (442368)
I1114 13:45:59.474256  1019 net.cpp:160] Memory required for data: 2591781248
I1114 13:45:59.474282  1019 net.cpp:184] DEBUG: need_backward = 1
I1114 13:45:59.474288  1019 layer_factory.hpp:77] Creating layer ReLU21
I1114 13:45:59.474299  1019 net.cpp:93] Creating Layer ReLU21
I1114 13:45:59.474309  1019 net.cpp:436] ReLU21 <- blob53
I1114 13:45:59.474318  1019 net.cpp:397] ReLU21 -> blob53 (in-place)
I1114 13:45:59.474921  1019 net.cpp:145] Setting up ReLU21
I1114 13:45:59.474937  1019 net.cpp:152] Top shape: 8 192 12 24 (442368)
I1114 13:45:59.474942  1019 net.cpp:160] Memory required for data: 2593550720
I1114 13:45:59.474947  1019 net.cpp:184] DEBUG: need_backward = 1
I1114 13:45:59.474951  1019 layer_factory.hpp:77] Creating layer net2_conv5_1
I1114 13:45:59.474967  1019 net.cpp:93] Creating Layer net2_conv5_1
I1114 13:45:59.474975  1019 net.cpp:436] net2_conv5_1 <- blob53
I1114 13:45:59.474984  1019 net.cpp:410] net2_conv5_1 -> blob54
I1114 13:45:59.489658  1019 net.cpp:145] Setting up net2_conv5_1
I1114 13:45:59.489679  1019 net.cpp:152] Top shape: 8 192 12 24 (442368)
I1114 13:45:59.489686  1019 net.cpp:160] Memory required for data: 2595320192
I1114 13:45:59.489694  1019 net.cpp:184] DEBUG: need_backward = 1
I1114 13:45:59.489699  1019 layer_factory.hpp:77] Creating layer ReLU22
I1114 13:45:59.489709  1019 net.cpp:93] Creating Layer ReLU22
I1114 13:45:59.489715  1019 net.cpp:436] ReLU22 <- blob54
I1114 13:45:59.489725  1019 net.cpp:397] ReLU22 -> blob54 (in-place)
I1114 13:45:59.490326  1019 net.cpp:145] Setting up ReLU22
I1114 13:45:59.490342  1019 net.cpp:152] Top shape: 8 192 12 24 (442368)
I1114 13:45:59.490347  1019 net.cpp:160] Memory required for data: 2597089664
I1114 13:45:59.490352  1019 net.cpp:184] DEBUG: need_backward = 1
I1114 13:45:59.490357  1019 layer_factory.hpp:77] Creating layer blob54_ReLU22_0_split
I1114 13:45:59.490367  1019 net.cpp:93] Creating Layer blob54_ReLU22_0_split
I1114 13:45:59.490375  1019 net.cpp:436] blob54_ReLU22_0_split <- blob54
I1114 13:45:59.490382  1019 net.cpp:410] blob54_ReLU22_0_split -> blob54_ReLU22_0_split_0
I1114 13:45:59.490391  1019 net.cpp:410] blob54_ReLU22_0_split -> blob54_ReLU22_0_split_1
I1114 13:45:59.490451  1019 net.cpp:145] Setting up blob54_ReLU22_0_split
I1114 13:45:59.490465  1019 net.cpp:152] Top shape: 8 192 12 24 (442368)
I1114 13:45:59.490476  1019 net.cpp:152] Top shape: 8 192 12 24 (442368)
I1114 13:45:59.490485  1019 net.cpp:160] Memory required for data: 2600628608
I1114 13:45:59.490490  1019 net.cpp:184] DEBUG: need_backward = 1
I1114 13:45:59.490495  1019 layer_factory.hpp:77] Creating layer net2_conv6
I1114 13:45:59.490510  1019 net.cpp:93] Creating Layer net2_conv6
I1114 13:45:59.490520  1019 net.cpp:436] net2_conv6 <- blob54_ReLU22_0_split_0
I1114 13:45:59.490532  1019 net.cpp:410] net2_conv6 -> blob55
I1114 13:45:59.517627  1019 net.cpp:145] Setting up net2_conv6
I1114 13:45:59.517666  1019 net.cpp:152] Top shape: 8 384 6 12 (221184)
I1114 13:45:59.517673  1019 net.cpp:160] Memory required for data: 2601513344
I1114 13:45:59.517684  1019 net.cpp:184] DEBUG: need_backward = 1
I1114 13:45:59.517690  1019 layer_factory.hpp:77] Creating layer ReLU23
I1114 13:45:59.517705  1019 net.cpp:93] Creating Layer ReLU23
I1114 13:45:59.517715  1019 net.cpp:436] ReLU23 <- blob55
I1114 13:45:59.517729  1019 net.cpp:397] ReLU23 -> blob55 (in-place)
I1114 13:45:59.518003  1019 net.cpp:145] Setting up ReLU23
I1114 13:45:59.518021  1019 net.cpp:152] Top shape: 8 384 6 12 (221184)
I1114 13:45:59.518069  1019 net.cpp:160] Memory required for data: 2602398080
I1114 13:45:59.518077  1019 net.cpp:184] DEBUG: need_backward = 1
I1114 13:45:59.518086  1019 layer_factory.hpp:77] Creating layer net2_conv6_1
I1114 13:45:59.518110  1019 net.cpp:93] Creating Layer net2_conv6_1
I1114 13:45:59.518126  1019 net.cpp:436] net2_conv6_1 <- blob55
I1114 13:45:59.518146  1019 net.cpp:410] net2_conv6_1 -> blob56
I1114 13:45:59.570147  1019 net.cpp:145] Setting up net2_conv6_1
I1114 13:45:59.570179  1019 net.cpp:152] Top shape: 8 384 6 12 (221184)
I1114 13:45:59.570184  1019 net.cpp:160] Memory required for data: 2603282816
I1114 13:45:59.570199  1019 net.cpp:184] DEBUG: need_backward = 1
I1114 13:45:59.570204  1019 layer_factory.hpp:77] Creating layer ReLU24
I1114 13:45:59.570216  1019 net.cpp:93] Creating Layer ReLU24
I1114 13:45:59.570226  1019 net.cpp:436] ReLU24 <- blob56
I1114 13:45:59.570235  1019 net.cpp:397] ReLU24 -> blob56 (in-place)
I1114 13:45:59.570498  1019 net.cpp:145] Setting up ReLU24
I1114 13:45:59.570513  1019 net.cpp:152] Top shape: 8 384 6 12 (221184)
I1114 13:45:59.570523  1019 net.cpp:160] Memory required for data: 2604167552
I1114 13:45:59.570543  1019 net.cpp:184] DEBUG: need_backward = 1
I1114 13:45:59.570554  1019 layer_factory.hpp:77] Creating layer blob56_ReLU24_0_split
I1114 13:45:59.570569  1019 net.cpp:93] Creating Layer blob56_ReLU24_0_split
I1114 13:45:59.570580  1019 net.cpp:436] blob56_ReLU24_0_split <- blob56
I1114 13:45:59.570591  1019 net.cpp:410] blob56_ReLU24_0_split -> blob56_ReLU24_0_split_0
I1114 13:45:59.570613  1019 net.cpp:410] blob56_ReLU24_0_split -> blob56_ReLU24_0_split_1
I1114 13:45:59.570710  1019 net.cpp:145] Setting up blob56_ReLU24_0_split
I1114 13:45:59.570725  1019 net.cpp:152] Top shape: 8 384 6 12 (221184)
I1114 13:45:59.570731  1019 net.cpp:152] Top shape: 8 384 6 12 (221184)
I1114 13:45:59.570736  1019 net.cpp:160] Memory required for data: 2605937024
I1114 13:45:59.570740  1019 net.cpp:184] DEBUG: need_backward = 1
I1114 13:45:59.570745  1019 layer_factory.hpp:77] Creating layer net2_predict_conv6
I1114 13:45:59.570760  1019 net.cpp:93] Creating Layer net2_predict_conv6
I1114 13:45:59.570772  1019 net.cpp:436] net2_predict_conv6 <- blob56_ReLU24_0_split_0
I1114 13:45:59.570791  1019 net.cpp:410] net2_predict_conv6 -> blob57
I1114 13:45:59.572929  1019 net.cpp:145] Setting up net2_predict_conv6
I1114 13:45:59.572948  1019 net.cpp:152] Top shape: 8 2 6 12 (1152)
I1114 13:45:59.572962  1019 net.cpp:160] Memory required for data: 2605941632
I1114 13:45:59.572976  1019 net.cpp:184] DEBUG: need_backward = 1
I1114 13:45:59.572990  1019 layer_factory.hpp:77] Creating layer blob57_net2_predict_conv6_0_split
I1114 13:45:59.573005  1019 net.cpp:93] Creating Layer blob57_net2_predict_conv6_0_split
I1114 13:45:59.573016  1019 net.cpp:436] blob57_net2_predict_conv6_0_split <- blob57
I1114 13:45:59.573030  1019 net.cpp:410] blob57_net2_predict_conv6_0_split -> blob57_net2_predict_conv6_0_split_0
I1114 13:45:59.573051  1019 net.cpp:410] blob57_net2_predict_conv6_0_split -> blob57_net2_predict_conv6_0_split_1
I1114 13:45:59.573065  1019 net.cpp:410] blob57_net2_predict_conv6_0_split -> blob57_net2_predict_conv6_0_split_2
I1114 13:45:59.573175  1019 net.cpp:145] Setting up blob57_net2_predict_conv6_0_split
I1114 13:45:59.573192  1019 net.cpp:152] Top shape: 8 2 6 12 (1152)
I1114 13:45:59.573204  1019 net.cpp:152] Top shape: 8 2 6 12 (1152)
I1114 13:45:59.573218  1019 net.cpp:152] Top shape: 8 2 6 12 (1152)
I1114 13:45:59.573230  1019 net.cpp:160] Memory required for data: 2605955456
I1114 13:45:59.573240  1019 net.cpp:184] DEBUG: need_backward = 1
I1114 13:45:59.573251  1019 layer_factory.hpp:77] Creating layer Downsample1
I1114 13:45:59.573269  1019 net.cpp:93] Creating Layer Downsample1
I1114 13:45:59.573284  1019 net.cpp:436] Downsample1 <- blob46_Eltwise7_0_split_0
I1114 13:45:59.573297  1019 net.cpp:436] Downsample1 <- blob57_net2_predict_conv6_0_split_0
I1114 13:45:59.573309  1019 net.cpp:410] Downsample1 -> blob58
W1114 13:45:59.573328  1019 downsample_layer.cpp:25] DownsampleLayer only runs Reshape on setup
I1114 13:45:59.573415  1019 net.cpp:145] Setting up Downsample1
I1114 13:45:59.573429  1019 net.cpp:152] Top shape: 8 2 6 12 (1152)
I1114 13:45:59.573434  1019 net.cpp:160] Memory required for data: 2605960064
I1114 13:45:59.573438  1019 net.cpp:184] DEBUG: need_backward = 0
I1114 13:45:59.573443  1019 layer_factory.hpp:77] Creating layer net2_flow_loss6
I1114 13:45:59.573457  1019 net.cpp:93] Creating Layer net2_flow_loss6
I1114 13:45:59.573467  1019 net.cpp:436] net2_flow_loss6 <- blob57_net2_predict_conv6_0_split_1
I1114 13:45:59.573474  1019 net.cpp:436] net2_flow_loss6 <- blob58
I1114 13:45:59.573484  1019 net.cpp:410] net2_flow_loss6 -> net2_flow_loss6
I1114 13:45:59.574089  1019 net.cpp:145] Setting up net2_flow_loss6
I1114 13:45:59.574105  1019 net.cpp:152] Top shape: (1)
I1114 13:45:59.574110  1019 net.cpp:155]     with loss weight 0.32
I1114 13:45:59.574137  1019 net.cpp:160] Memory required for data: 2605960068
I1114 13:45:59.574146  1019 net.cpp:184] DEBUG: need_backward = 1
I1114 13:45:59.574151  1019 layer_factory.hpp:77] Creating layer net2_deconv5
I1114 13:45:59.574162  1019 net.cpp:93] Creating Layer net2_deconv5
I1114 13:45:59.574170  1019 net.cpp:436] net2_deconv5 <- blob56_ReLU24_0_split_1
I1114 13:45:59.574184  1019 net.cpp:410] net2_deconv5 -> blob59
I1114 13:45:59.619940  1019 net.cpp:145] Setting up net2_deconv5
I1114 13:45:59.619976  1019 net.cpp:152] Top shape: 8 192 12 24 (442368)
I1114 13:45:59.619982  1019 net.cpp:160] Memory required for data: 2607729540
I1114 13:45:59.619992  1019 net.cpp:184] DEBUG: need_backward = 1
I1114 13:45:59.619997  1019 layer_factory.hpp:77] Creating layer ReLU25
I1114 13:45:59.620012  1019 net.cpp:93] Creating Layer ReLU25
I1114 13:45:59.620019  1019 net.cpp:436] ReLU25 <- blob59
I1114 13:45:59.620029  1019 net.cpp:397] ReLU25 -> blob59 (in-place)
I1114 13:45:59.620368  1019 net.cpp:145] Setting up ReLU25
I1114 13:45:59.620383  1019 net.cpp:152] Top shape: 8 192 12 24 (442368)
I1114 13:45:59.620388  1019 net.cpp:160] Memory required for data: 2609499012
I1114 13:45:59.620394  1019 net.cpp:184] DEBUG: need_backward = 1
I1114 13:45:59.620401  1019 layer_factory.hpp:77] Creating layer net2_net2_upsample_flow6to5
I1114 13:45:59.620417  1019 net.cpp:93] Creating Layer net2_net2_upsample_flow6to5
I1114 13:45:59.620425  1019 net.cpp:436] net2_net2_upsample_flow6to5 <- blob57_net2_predict_conv6_0_split_2
I1114 13:45:59.620435  1019 net.cpp:410] net2_net2_upsample_flow6to5 -> blob60
I1114 13:45:59.620882  1019 net.cpp:145] Setting up net2_net2_upsample_flow6to5
I1114 13:45:59.620899  1019 net.cpp:152] Top shape: 8 2 12 24 (4608)
I1114 13:45:59.620906  1019 net.cpp:160] Memory required for data: 2609517444
I1114 13:45:59.620915  1019 net.cpp:184] DEBUG: need_backward = 1
I1114 13:45:59.620921  1019 layer_factory.hpp:77] Creating layer Concat7
I1114 13:45:59.620932  1019 net.cpp:93] Creating Layer Concat7
I1114 13:45:59.620946  1019 net.cpp:436] Concat7 <- blob54_ReLU22_0_split_1
I1114 13:45:59.620955  1019 net.cpp:436] Concat7 <- blob59
I1114 13:45:59.620965  1019 net.cpp:436] Concat7 <- blob60
I1114 13:45:59.620972  1019 net.cpp:410] Concat7 -> blob61
I1114 13:45:59.621031  1019 net.cpp:145] Setting up Concat7
I1114 13:45:59.621047  1019 net.cpp:152] Top shape: 8 386 12 24 (889344)
I1114 13:45:59.621052  1019 net.cpp:160] Memory required for data: 2613074820
I1114 13:45:59.621055  1019 net.cpp:184] DEBUG: need_backward = 1
I1114 13:45:59.621060  1019 layer_factory.hpp:77] Creating layer blob61_Concat7_0_split
I1114 13:45:59.621068  1019 net.cpp:93] Creating Layer blob61_Concat7_0_split
I1114 13:45:59.621079  1019 net.cpp:436] blob61_Concat7_0_split <- blob61
I1114 13:45:59.621093  1019 net.cpp:410] blob61_Concat7_0_split -> blob61_Concat7_0_split_0
I1114 13:45:59.621105  1019 net.cpp:410] blob61_Concat7_0_split -> blob61_Concat7_0_split_1
I1114 13:45:59.621183  1019 net.cpp:145] Setting up blob61_Concat7_0_split
I1114 13:45:59.621198  1019 net.cpp:152] Top shape: 8 386 12 24 (889344)
I1114 13:45:59.621240  1019 net.cpp:152] Top shape: 8 386 12 24 (889344)
I1114 13:45:59.621248  1019 net.cpp:160] Memory required for data: 2620189572
I1114 13:45:59.621253  1019 net.cpp:184] DEBUG: need_backward = 1
I1114 13:45:59.621256  1019 layer_factory.hpp:77] Creating layer net2_predict_conv5
I1114 13:45:59.621271  1019 net.cpp:93] Creating Layer net2_predict_conv5
I1114 13:45:59.621281  1019 net.cpp:436] net2_predict_conv5 <- blob61_Concat7_0_split_0
I1114 13:45:59.621302  1019 net.cpp:410] net2_predict_conv5 -> blob62
I1114 13:45:59.623569  1019 net.cpp:145] Setting up net2_predict_conv5
I1114 13:45:59.623585  1019 net.cpp:152] Top shape: 8 2 12 24 (4608)
I1114 13:45:59.623590  1019 net.cpp:160] Memory required for data: 2620208004
I1114 13:45:59.623601  1019 net.cpp:184] DEBUG: need_backward = 1
I1114 13:45:59.623610  1019 layer_factory.hpp:77] Creating layer blob62_net2_predict_conv5_0_split
I1114 13:45:59.623623  1019 net.cpp:93] Creating Layer blob62_net2_predict_conv5_0_split
I1114 13:45:59.623636  1019 net.cpp:436] blob62_net2_predict_conv5_0_split <- blob62
I1114 13:45:59.623646  1019 net.cpp:410] blob62_net2_predict_conv5_0_split -> blob62_net2_predict_conv5_0_split_0
I1114 13:45:59.623657  1019 net.cpp:410] blob62_net2_predict_conv5_0_split -> blob62_net2_predict_conv5_0_split_1
I1114 13:45:59.623703  1019 net.cpp:410] blob62_net2_predict_conv5_0_split -> blob62_net2_predict_conv5_0_split_2
I1114 13:45:59.623805  1019 net.cpp:145] Setting up blob62_net2_predict_conv5_0_split
I1114 13:45:59.623823  1019 net.cpp:152] Top shape: 8 2 12 24 (4608)
I1114 13:45:59.623838  1019 net.cpp:152] Top shape: 8 2 12 24 (4608)
I1114 13:45:59.623868  1019 net.cpp:152] Top shape: 8 2 12 24 (4608)
I1114 13:45:59.623877  1019 net.cpp:160] Memory required for data: 2620263300
I1114 13:45:59.623881  1019 net.cpp:184] DEBUG: need_backward = 1
I1114 13:45:59.623886  1019 layer_factory.hpp:77] Creating layer Downsample2
I1114 13:45:59.623894  1019 net.cpp:93] Creating Layer Downsample2
I1114 13:45:59.623899  1019 net.cpp:436] Downsample2 <- blob46_Eltwise7_0_split_1
I1114 13:45:59.623914  1019 net.cpp:436] Downsample2 <- blob62_net2_predict_conv5_0_split_0
I1114 13:45:59.623936  1019 net.cpp:410] Downsample2 -> blob63
W1114 13:45:59.623952  1019 downsample_layer.cpp:25] DownsampleLayer only runs Reshape on setup
I1114 13:45:59.624011  1019 net.cpp:145] Setting up Downsample2
I1114 13:45:59.624027  1019 net.cpp:152] Top shape: 8 2 12 24 (4608)
I1114 13:45:59.624033  1019 net.cpp:160] Memory required for data: 2620281732
I1114 13:45:59.624037  1019 net.cpp:184] DEBUG: need_backward = 0
I1114 13:45:59.624042  1019 layer_factory.hpp:77] Creating layer net2_flow_loss5
I1114 13:45:59.624059  1019 net.cpp:93] Creating Layer net2_flow_loss5
I1114 13:45:59.624068  1019 net.cpp:436] net2_flow_loss5 <- blob62_net2_predict_conv5_0_split_1
I1114 13:45:59.624075  1019 net.cpp:436] net2_flow_loss5 <- blob63
I1114 13:45:59.624086  1019 net.cpp:410] net2_flow_loss5 -> net2_flow_loss5
I1114 13:45:59.624711  1019 net.cpp:145] Setting up net2_flow_loss5
I1114 13:45:59.624727  1019 net.cpp:152] Top shape: (1)
I1114 13:45:59.624733  1019 net.cpp:155]     with loss weight 0.08
I1114 13:45:59.624749  1019 net.cpp:160] Memory required for data: 2620281736
I1114 13:45:59.624754  1019 net.cpp:184] DEBUG: need_backward = 1
I1114 13:45:59.624763  1019 layer_factory.hpp:77] Creating layer net2_deconv4
I1114 13:45:59.624780  1019 net.cpp:93] Creating Layer net2_deconv4
I1114 13:45:59.624788  1019 net.cpp:436] net2_deconv4 <- blob61_Concat7_0_split_1
I1114 13:45:59.624797  1019 net.cpp:410] net2_deconv4 -> blob64
I1114 13:45:59.648025  1019 net.cpp:145] Setting up net2_deconv4
I1114 13:45:59.648051  1019 net.cpp:152] Top shape: 8 96 24 48 (884736)
I1114 13:45:59.648057  1019 net.cpp:160] Memory required for data: 2623820680
I1114 13:45:59.648066  1019 net.cpp:184] DEBUG: need_backward = 1
I1114 13:45:59.648073  1019 layer_factory.hpp:77] Creating layer ReLU26
I1114 13:45:59.648083  1019 net.cpp:93] Creating Layer ReLU26
I1114 13:45:59.648090  1019 net.cpp:436] ReLU26 <- blob64
I1114 13:45:59.648133  1019 net.cpp:397] ReLU26 -> blob64 (in-place)
I1114 13:45:59.648455  1019 net.cpp:145] Setting up ReLU26
I1114 13:45:59.648471  1019 net.cpp:152] Top shape: 8 96 24 48 (884736)
I1114 13:45:59.648476  1019 net.cpp:160] Memory required for data: 2627359624
I1114 13:45:59.648480  1019 net.cpp:184] DEBUG: need_backward = 1
I1114 13:45:59.648485  1019 layer_factory.hpp:77] Creating layer net2_net2_upsample_flow5to4
I1114 13:45:59.648497  1019 net.cpp:93] Creating Layer net2_net2_upsample_flow5to4
I1114 13:45:59.648509  1019 net.cpp:436] net2_net2_upsample_flow5to4 <- blob62_net2_predict_conv5_0_split_2
I1114 13:45:59.648526  1019 net.cpp:410] net2_net2_upsample_flow5to4 -> blob65
I1114 13:45:59.648977  1019 net.cpp:145] Setting up net2_net2_upsample_flow5to4
I1114 13:45:59.648995  1019 net.cpp:152] Top shape: 8 2 24 48 (18432)
I1114 13:45:59.649003  1019 net.cpp:160] Memory required for data: 2627433352
I1114 13:45:59.649011  1019 net.cpp:184] DEBUG: need_backward = 1
I1114 13:45:59.649015  1019 layer_factory.hpp:77] Creating layer Concat8
I1114 13:45:59.649026  1019 net.cpp:93] Creating Layer Concat8
I1114 13:45:59.649040  1019 net.cpp:436] Concat8 <- blob52_ReLU20_0_split_1
I1114 13:45:59.649049  1019 net.cpp:436] Concat8 <- blob64
I1114 13:45:59.649055  1019 net.cpp:436] Concat8 <- blob65
I1114 13:45:59.649063  1019 net.cpp:410] Concat8 -> blob66
I1114 13:45:59.649117  1019 net.cpp:145] Setting up Concat8
I1114 13:45:59.649132  1019 net.cpp:152] Top shape: 8 290 24 48 (2672640)
I1114 13:45:59.649139  1019 net.cpp:160] Memory required for data: 2638123912
I1114 13:45:59.649143  1019 net.cpp:184] DEBUG: need_backward = 1
I1114 13:45:59.649148  1019 layer_factory.hpp:77] Creating layer blob66_Concat8_0_split
I1114 13:45:59.649164  1019 net.cpp:93] Creating Layer blob66_Concat8_0_split
I1114 13:45:59.649173  1019 net.cpp:436] blob66_Concat8_0_split <- blob66
I1114 13:45:59.649183  1019 net.cpp:410] blob66_Concat8_0_split -> blob66_Concat8_0_split_0
I1114 13:45:59.649194  1019 net.cpp:410] blob66_Concat8_0_split -> blob66_Concat8_0_split_1
I1114 13:45:59.649268  1019 net.cpp:145] Setting up blob66_Concat8_0_split
I1114 13:45:59.649283  1019 net.cpp:152] Top shape: 8 290 24 48 (2672640)
I1114 13:45:59.649293  1019 net.cpp:152] Top shape: 8 290 24 48 (2672640)
I1114 13:45:59.649303  1019 net.cpp:160] Memory required for data: 2659505032
I1114 13:45:59.649312  1019 net.cpp:184] DEBUG: need_backward = 1
I1114 13:45:59.649320  1019 layer_factory.hpp:77] Creating layer net2_predict_conv4
I1114 13:45:59.649344  1019 net.cpp:93] Creating Layer net2_predict_conv4
I1114 13:45:59.649356  1019 net.cpp:436] net2_predict_conv4 <- blob66_Concat8_0_split_0
I1114 13:45:59.649369  1019 net.cpp:410] net2_predict_conv4 -> blob67
I1114 13:45:59.651079  1019 net.cpp:145] Setting up net2_predict_conv4
I1114 13:45:59.651098  1019 net.cpp:152] Top shape: 8 2 24 48 (18432)
I1114 13:45:59.651108  1019 net.cpp:160] Memory required for data: 2659578760
I1114 13:45:59.651123  1019 net.cpp:184] DEBUG: need_backward = 1
I1114 13:45:59.651134  1019 layer_factory.hpp:77] Creating layer blob67_net2_predict_conv4_0_split
I1114 13:45:59.651146  1019 net.cpp:93] Creating Layer blob67_net2_predict_conv4_0_split
I1114 13:45:59.651159  1019 net.cpp:436] blob67_net2_predict_conv4_0_split <- blob67
I1114 13:45:59.651177  1019 net.cpp:410] blob67_net2_predict_conv4_0_split -> blob67_net2_predict_conv4_0_split_0
I1114 13:45:59.651196  1019 net.cpp:410] blob67_net2_predict_conv4_0_split -> blob67_net2_predict_conv4_0_split_1
I1114 13:45:59.651213  1019 net.cpp:410] blob67_net2_predict_conv4_0_split -> blob67_net2_predict_conv4_0_split_2
I1114 13:45:59.651306  1019 net.cpp:145] Setting up blob67_net2_predict_conv4_0_split
I1114 13:45:59.651324  1019 net.cpp:152] Top shape: 8 2 24 48 (18432)
I1114 13:45:59.651335  1019 net.cpp:152] Top shape: 8 2 24 48 (18432)
I1114 13:45:59.651347  1019 net.cpp:152] Top shape: 8 2 24 48 (18432)
I1114 13:45:59.651356  1019 net.cpp:160] Memory required for data: 2659799944
I1114 13:45:59.651365  1019 net.cpp:184] DEBUG: need_backward = 1
I1114 13:45:59.651391  1019 layer_factory.hpp:77] Creating layer Downsample3
I1114 13:45:59.651412  1019 net.cpp:93] Creating Layer Downsample3
I1114 13:45:59.651424  1019 net.cpp:436] Downsample3 <- blob46_Eltwise7_0_split_2
I1114 13:45:59.651440  1019 net.cpp:436] Downsample3 <- blob67_net2_predict_conv4_0_split_0
I1114 13:45:59.651460  1019 net.cpp:410] Downsample3 -> blob68
W1114 13:45:59.651479  1019 downsample_layer.cpp:25] DownsampleLayer only runs Reshape on setup
I1114 13:45:59.651540  1019 net.cpp:145] Setting up Downsample3
I1114 13:45:59.651553  1019 net.cpp:152] Top shape: 8 2 24 48 (18432)
I1114 13:45:59.651562  1019 net.cpp:160] Memory required for data: 2659873672
I1114 13:45:59.651572  1019 net.cpp:184] DEBUG: need_backward = 0
I1114 13:45:59.651581  1019 layer_factory.hpp:77] Creating layer net2_flow_loss4
I1114 13:45:59.651598  1019 net.cpp:93] Creating Layer net2_flow_loss4
I1114 13:45:59.651613  1019 net.cpp:436] net2_flow_loss4 <- blob67_net2_predict_conv4_0_split_1
I1114 13:45:59.651623  1019 net.cpp:436] net2_flow_loss4 <- blob68
I1114 13:45:59.651643  1019 net.cpp:410] net2_flow_loss4 -> net2_flow_loss4
I1114 13:45:59.652289  1019 net.cpp:145] Setting up net2_flow_loss4
I1114 13:45:59.652305  1019 net.cpp:152] Top shape: (1)
I1114 13:45:59.652310  1019 net.cpp:155]     with loss weight 0.02
I1114 13:45:59.652325  1019 net.cpp:160] Memory required for data: 2659873676
I1114 13:45:59.652329  1019 net.cpp:184] DEBUG: need_backward = 1
I1114 13:45:59.652334  1019 layer_factory.hpp:77] Creating layer net2_deconv3
I1114 13:45:59.652349  1019 net.cpp:93] Creating Layer net2_deconv3
I1114 13:45:59.652361  1019 net.cpp:436] net2_deconv3 <- blob66_Concat8_0_split_1
I1114 13:45:59.652374  1019 net.cpp:410] net2_deconv3 -> blob69
I1114 13:45:59.661973  1019 net.cpp:145] Setting up net2_deconv3
I1114 13:45:59.662004  1019 net.cpp:152] Top shape: 8 48 48 96 (1769472)
I1114 13:45:59.662012  1019 net.cpp:160] Memory required for data: 2666951564
I1114 13:45:59.662021  1019 net.cpp:184] DEBUG: need_backward = 1
I1114 13:45:59.662029  1019 layer_factory.hpp:77] Creating layer ReLU27
I1114 13:45:59.662040  1019 net.cpp:93] Creating Layer ReLU27
I1114 13:45:59.662053  1019 net.cpp:436] ReLU27 <- blob69
I1114 13:45:59.662072  1019 net.cpp:397] ReLU27 -> blob69 (in-place)
I1114 13:45:59.662761  1019 net.cpp:145] Setting up ReLU27
I1114 13:45:59.662777  1019 net.cpp:152] Top shape: 8 48 48 96 (1769472)
I1114 13:45:59.662782  1019 net.cpp:160] Memory required for data: 2674029452
I1114 13:45:59.662789  1019 net.cpp:184] DEBUG: need_backward = 1
I1114 13:45:59.662794  1019 layer_factory.hpp:77] Creating layer net2_net2_upsample_flow4to3
I1114 13:45:59.662827  1019 net.cpp:93] Creating Layer net2_net2_upsample_flow4to3
I1114 13:45:59.662838  1019 net.cpp:436] net2_net2_upsample_flow4to3 <- blob67_net2_predict_conv4_0_split_2
I1114 13:45:59.662853  1019 net.cpp:410] net2_net2_upsample_flow4to3 -> blob70
I1114 13:45:59.663250  1019 net.cpp:145] Setting up net2_net2_upsample_flow4to3
I1114 13:45:59.663266  1019 net.cpp:152] Top shape: 8 2 48 96 (73728)
I1114 13:45:59.663271  1019 net.cpp:160] Memory required for data: 2674324364
I1114 13:45:59.663280  1019 net.cpp:184] DEBUG: need_backward = 1
I1114 13:45:59.663286  1019 layer_factory.hpp:77] Creating layer Concat9
I1114 13:45:59.663295  1019 net.cpp:93] Creating Layer Concat9
I1114 13:45:59.663305  1019 net.cpp:436] Concat9 <- blob50_ReLU18_0_split_1
I1114 13:45:59.663313  1019 net.cpp:436] Concat9 <- blob69
I1114 13:45:59.663319  1019 net.cpp:436] Concat9 <- blob70
I1114 13:45:59.663326  1019 net.cpp:410] Concat9 -> blob71
I1114 13:45:59.663365  1019 net.cpp:145] Setting up Concat9
I1114 13:45:59.663378  1019 net.cpp:152] Top shape: 8 146 48 96 (5382144)
I1114 13:45:59.663383  1019 net.cpp:160] Memory required for data: 2695852940
I1114 13:45:59.663386  1019 net.cpp:184] DEBUG: need_backward = 1
I1114 13:45:59.663390  1019 layer_factory.hpp:77] Creating layer blob71_Concat9_0_split
I1114 13:45:59.663401  1019 net.cpp:93] Creating Layer blob71_Concat9_0_split
I1114 13:45:59.663436  1019 net.cpp:436] blob71_Concat9_0_split <- blob71
I1114 13:45:59.663450  1019 net.cpp:410] blob71_Concat9_0_split -> blob71_Concat9_0_split_0
I1114 13:45:59.663461  1019 net.cpp:410] blob71_Concat9_0_split -> blob71_Concat9_0_split_1
I1114 13:45:59.663524  1019 net.cpp:145] Setting up blob71_Concat9_0_split
I1114 13:45:59.663537  1019 net.cpp:152] Top shape: 8 146 48 96 (5382144)
I1114 13:45:59.663545  1019 net.cpp:152] Top shape: 8 146 48 96 (5382144)
I1114 13:45:59.663554  1019 net.cpp:160] Memory required for data: 2738910092
I1114 13:45:59.663561  1019 net.cpp:184] DEBUG: need_backward = 1
I1114 13:45:59.663568  1019 layer_factory.hpp:77] Creating layer net2_predict_conv3
I1114 13:45:59.663583  1019 net.cpp:93] Creating Layer net2_predict_conv3
I1114 13:45:59.663592  1019 net.cpp:436] net2_predict_conv3 <- blob71_Concat9_0_split_0
I1114 13:45:59.663601  1019 net.cpp:410] net2_predict_conv3 -> blob72
I1114 13:45:59.664819  1019 net.cpp:145] Setting up net2_predict_conv3
I1114 13:45:59.664836  1019 net.cpp:152] Top shape: 8 2 48 96 (73728)
I1114 13:45:59.664841  1019 net.cpp:160] Memory required for data: 2739205004
I1114 13:45:59.664849  1019 net.cpp:184] DEBUG: need_backward = 1
I1114 13:45:59.664856  1019 layer_factory.hpp:77] Creating layer blob72_net2_predict_conv3_0_split
I1114 13:45:59.664866  1019 net.cpp:93] Creating Layer blob72_net2_predict_conv3_0_split
I1114 13:45:59.664873  1019 net.cpp:436] blob72_net2_predict_conv3_0_split <- blob72
I1114 13:45:59.664881  1019 net.cpp:410] blob72_net2_predict_conv3_0_split -> blob72_net2_predict_conv3_0_split_0
I1114 13:45:59.664893  1019 net.cpp:410] blob72_net2_predict_conv3_0_split -> blob72_net2_predict_conv3_0_split_1
I1114 13:45:59.664904  1019 net.cpp:410] blob72_net2_predict_conv3_0_split -> blob72_net2_predict_conv3_0_split_2
I1114 13:45:59.665004  1019 net.cpp:145] Setting up blob72_net2_predict_conv3_0_split
I1114 13:45:59.665019  1019 net.cpp:152] Top shape: 8 2 48 96 (73728)
I1114 13:45:59.665024  1019 net.cpp:152] Top shape: 8 2 48 96 (73728)
I1114 13:45:59.665030  1019 net.cpp:152] Top shape: 8 2 48 96 (73728)
I1114 13:45:59.665037  1019 net.cpp:160] Memory required for data: 2740089740
I1114 13:45:59.665041  1019 net.cpp:184] DEBUG: need_backward = 1
I1114 13:45:59.665046  1019 layer_factory.hpp:77] Creating layer Downsample4
I1114 13:45:59.665053  1019 net.cpp:93] Creating Layer Downsample4
I1114 13:45:59.665058  1019 net.cpp:436] Downsample4 <- blob46_Eltwise7_0_split_3
I1114 13:45:59.665066  1019 net.cpp:436] Downsample4 <- blob72_net2_predict_conv3_0_split_0
I1114 13:45:59.665076  1019 net.cpp:410] Downsample4 -> blob73
W1114 13:45:59.665086  1019 downsample_layer.cpp:25] DownsampleLayer only runs Reshape on setup
I1114 13:45:59.665148  1019 net.cpp:145] Setting up Downsample4
I1114 13:45:59.665163  1019 net.cpp:152] Top shape: 8 2 48 96 (73728)
I1114 13:45:59.665169  1019 net.cpp:160] Memory required for data: 2740384652
I1114 13:45:59.665174  1019 net.cpp:184] DEBUG: need_backward = 0
I1114 13:45:59.665180  1019 layer_factory.hpp:77] Creating layer net2_flow_loss3
I1114 13:45:59.665191  1019 net.cpp:93] Creating Layer net2_flow_loss3
I1114 13:45:59.665201  1019 net.cpp:436] net2_flow_loss3 <- blob72_net2_predict_conv3_0_split_1
I1114 13:45:59.665231  1019 net.cpp:436] net2_flow_loss3 <- blob73
I1114 13:45:59.665246  1019 net.cpp:410] net2_flow_loss3 -> net2_flow_loss3
I1114 13:45:59.665846  1019 net.cpp:145] Setting up net2_flow_loss3
I1114 13:45:59.665863  1019 net.cpp:152] Top shape: (1)
I1114 13:45:59.665868  1019 net.cpp:155]     with loss weight 0.01
I1114 13:45:59.665882  1019 net.cpp:160] Memory required for data: 2740384656
I1114 13:45:59.665886  1019 net.cpp:184] DEBUG: need_backward = 1
I1114 13:45:59.665891  1019 layer_factory.hpp:77] Creating layer net2_deconv2
I1114 13:45:59.665900  1019 net.cpp:93] Creating Layer net2_deconv2
I1114 13:45:59.665906  1019 net.cpp:436] net2_deconv2 <- blob71_Concat9_0_split_1
I1114 13:45:59.665917  1019 net.cpp:410] net2_deconv2 -> blob74
I1114 13:45:59.668467  1019 net.cpp:145] Setting up net2_deconv2
I1114 13:45:59.668530  1019 net.cpp:152] Top shape: 8 24 96 192 (3538944)
I1114 13:45:59.668536  1019 net.cpp:160] Memory required for data: 2754540432
I1114 13:45:59.668545  1019 net.cpp:184] DEBUG: need_backward = 1
I1114 13:45:59.668551  1019 layer_factory.hpp:77] Creating layer ReLU28
I1114 13:45:59.668562  1019 net.cpp:93] Creating Layer ReLU28
I1114 13:45:59.668570  1019 net.cpp:436] ReLU28 <- blob74
I1114 13:45:59.668578  1019 net.cpp:397] ReLU28 -> blob74 (in-place)
I1114 13:45:59.669351  1019 net.cpp:145] Setting up ReLU28
I1114 13:45:59.669368  1019 net.cpp:152] Top shape: 8 24 96 192 (3538944)
I1114 13:45:59.669373  1019 net.cpp:160] Memory required for data: 2768696208
I1114 13:45:59.669378  1019 net.cpp:184] DEBUG: need_backward = 1
I1114 13:45:59.669383  1019 layer_factory.hpp:77] Creating layer net2_net2_upsample_flow3to2
I1114 13:45:59.669396  1019 net.cpp:93] Creating Layer net2_net2_upsample_flow3to2
I1114 13:45:59.669404  1019 net.cpp:436] net2_net2_upsample_flow3to2 <- blob72_net2_predict_conv3_0_split_2
I1114 13:45:59.669713  1019 net.cpp:410] net2_net2_upsample_flow3to2 -> blob75
I1114 13:45:59.670198  1019 net.cpp:145] Setting up net2_net2_upsample_flow3to2
I1114 13:45:59.670215  1019 net.cpp:152] Top shape: 8 2 96 192 (294912)
I1114 13:45:59.670220  1019 net.cpp:160] Memory required for data: 2769875856
I1114 13:45:59.670228  1019 net.cpp:184] DEBUG: need_backward = 1
I1114 13:45:59.670233  1019 layer_factory.hpp:77] Creating layer Concat10
I1114 13:45:59.670243  1019 net.cpp:93] Creating Layer Concat10
I1114 13:45:59.670248  1019 net.cpp:436] Concat10 <- blob48_ReLU16_0_split_1
I1114 13:45:59.670258  1019 net.cpp:436] Concat10 <- blob74
I1114 13:45:59.670274  1019 net.cpp:436] Concat10 <- blob75
I1114 13:45:59.670287  1019 net.cpp:410] Concat10 -> blob76
I1114 13:45:59.670346  1019 net.cpp:145] Setting up Concat10
I1114 13:45:59.670366  1019 net.cpp:152] Top shape: 8 74 96 192 (10911744)
I1114 13:45:59.670375  1019 net.cpp:160] Memory required for data: 2813522832
I1114 13:45:59.670383  1019 net.cpp:184] DEBUG: need_backward = 1
I1114 13:45:59.670392  1019 layer_factory.hpp:77] Creating layer net2_predict_conv2
I1114 13:45:59.670418  1019 net.cpp:93] Creating Layer net2_predict_conv2
I1114 13:45:59.670429  1019 net.cpp:436] net2_predict_conv2 <- blob76
I1114 13:45:59.670450  1019 net.cpp:410] net2_predict_conv2 -> blob77
I1114 13:45:59.672428  1019 net.cpp:145] Setting up net2_predict_conv2
I1114 13:45:59.672459  1019 net.cpp:152] Top shape: 8 2 96 192 (294912)
I1114 13:45:59.672469  1019 net.cpp:160] Memory required for data: 2814702480
I1114 13:45:59.672487  1019 net.cpp:184] DEBUG: need_backward = 1
I1114 13:45:59.672500  1019 layer_factory.hpp:77] Creating layer blob77_net2_predict_conv2_0_split
I1114 13:45:59.672526  1019 net.cpp:93] Creating Layer blob77_net2_predict_conv2_0_split
I1114 13:45:59.672540  1019 net.cpp:436] blob77_net2_predict_conv2_0_split <- blob77
I1114 13:45:59.672557  1019 net.cpp:410] blob77_net2_predict_conv2_0_split -> blob77_net2_predict_conv2_0_split_0
I1114 13:45:59.672581  1019 net.cpp:410] blob77_net2_predict_conv2_0_split -> blob77_net2_predict_conv2_0_split_1
I1114 13:45:59.672602  1019 net.cpp:410] blob77_net2_predict_conv2_0_split -> blob77_net2_predict_conv2_0_split_2
I1114 13:45:59.672721  1019 net.cpp:145] Setting up blob77_net2_predict_conv2_0_split
I1114 13:45:59.672737  1019 net.cpp:152] Top shape: 8 2 96 192 (294912)
I1114 13:45:59.672744  1019 net.cpp:152] Top shape: 8 2 96 192 (294912)
I1114 13:45:59.672755  1019 net.cpp:152] Top shape: 8 2 96 192 (294912)
I1114 13:45:59.672765  1019 net.cpp:160] Memory required for data: 2818241424
I1114 13:45:59.672771  1019 net.cpp:184] DEBUG: need_backward = 1
I1114 13:45:59.672778  1019 layer_factory.hpp:77] Creating layer Downsample5
I1114 13:45:59.672797  1019 net.cpp:93] Creating Layer Downsample5
I1114 13:45:59.672811  1019 net.cpp:436] Downsample5 <- blob46_Eltwise7_0_split_4
I1114 13:45:59.672821  1019 net.cpp:436] Downsample5 <- blob77_net2_predict_conv2_0_split_0
I1114 13:45:59.672878  1019 net.cpp:410] Downsample5 -> blob78
W1114 13:45:59.672899  1019 downsample_layer.cpp:25] DownsampleLayer only runs Reshape on setup
I1114 13:45:59.672969  1019 net.cpp:145] Setting up Downsample5
I1114 13:45:59.672986  1019 net.cpp:152] Top shape: 8 2 96 192 (294912)
I1114 13:45:59.672991  1019 net.cpp:160] Memory required for data: 2819421072
I1114 13:45:59.672996  1019 net.cpp:184] DEBUG: need_backward = 0
I1114 13:45:59.673000  1019 layer_factory.hpp:77] Creating layer net2_flow_loss2
I1114 13:45:59.673017  1019 net.cpp:93] Creating Layer net2_flow_loss2
I1114 13:45:59.673046  1019 net.cpp:436] net2_flow_loss2 <- blob77_net2_predict_conv2_0_split_1
I1114 13:45:59.673058  1019 net.cpp:436] net2_flow_loss2 <- blob78
I1114 13:45:59.673068  1019 net.cpp:410] net2_flow_loss2 -> net2_flow_loss2
I1114 13:45:59.675215  1019 net.cpp:145] Setting up net2_flow_loss2
I1114 13:45:59.675246  1019 net.cpp:152] Top shape: (1)
I1114 13:45:59.675254  1019 net.cpp:155]     with loss weight 0.005
I1114 13:45:59.675276  1019 net.cpp:160] Memory required for data: 2819421076
I1114 13:45:59.675282  1019 net.cpp:184] DEBUG: need_backward = 1
I1114 13:45:59.675287  1019 layer_factory.hpp:77] Creating layer Eltwise8
I1114 13:45:59.675300  1019 net.cpp:93] Creating Layer Eltwise8
I1114 13:45:59.675309  1019 net.cpp:436] Eltwise8 <- blob77_net2_predict_conv2_0_split_2
I1114 13:45:59.675319  1019 net.cpp:410] Eltwise8 -> blob79
I1114 13:45:59.675374  1019 net.cpp:145] Setting up Eltwise8
I1114 13:45:59.675386  1019 net.cpp:152] Top shape: 8 2 96 192 (294912)
I1114 13:45:59.675395  1019 net.cpp:160] Memory required for data: 2820600724
I1114 13:45:59.675400  1019 net.cpp:184] DEBUG: need_backward = 1
I1114 13:45:59.675411  1019 layer_factory.hpp:77] Creating layer Silence1
I1114 13:45:59.675428  1019 net.cpp:93] Creating Layer Silence1
I1114 13:45:59.675460  1019 net.cpp:436] Silence1 <- blob0_CustomData1_0_split_1
I1114 13:45:59.675472  1019 net.cpp:145] Setting up Silence1
…
    col_rotate {
      rand_type: "uniform_bernoulli"
      exp: false
      mean: 0
      spread: 1
      prob: 1
    }
    crop_width: 768
    crop_height: 384
    chromatic_eigvec: 0.51
    chromatic_eigvec: 0.56
    chromatic_eigvec: 0.65
    chromatic_eigvec: 0.79
    chromatic_eigvec: 0.01
    chromatic_eigvec: -0.62
    chromatic_eigvec: 0.35
    chromatic_eigvec: -0.83
    chromatic_eigvec: 0.44
    noise {
      rand_type: "uniform_bernoulli"
      exp: false
      mean: 0.03
      spread: 0.03
      prob: 1
    }
  }
}
layer {
  name: "aug_params1"
  type: "GenerateAugmentationParameters"
  bottom: "blob6"
  bottom: "blob3"
  bottom: "img0_aug"
  top: "blob7"
  coeff_schedule_param {
    half_life: 50000
    initial_coeff: 0.5
    final_coeff: 1
  }
  augmentation_param {
    augment_during_test: false
    translate {
      rand_type: "gaussian_bernoulli"
      exp: false
      mean: 0
      spread: 0.03
      prob: 1
    }
    rotate {
      rand_type: "gaussian_bernoulli"
      exp: false
      mean: 0
      spread: 0.03
      prob: 1
    }
    zoom {
      rand_type: "gaussian_bernoulli"
      exp: true
      mean: 0
      spread: 0.03
      prob: 1
    }
    gamma {
      rand_type: "gaussian_bernoulli"
      exp: true
      mean: 0
      spread: 0.02
      prob: 1
    }
    brightness {
      rand_type: "gaussian_bernoulli"
      exp: false
      mean: 0
      spread: 0.02
      prob: 1
    }
    contrast {
      rand_type: "gaussian_bernoulli"
      exp: true
      mean: 0
      spread: 0.02
      prob: 1
    }
    color {
      rand_type: "gaussian_bernoulli"
      exp: true
      mean: 0
      spread: 0.02
      prob: 1
    }
  }
}
layer {
  name: "img1s_aug"
  type: "DataAugmentation"
  bottom: "blob4"
  bottom: "blob7"
  top: "img1_aug"
  augmentation_param {
    max_multiplier: 1
    augment_during_test: false
    recompute_mean: 1000
    mean_per_pixel: false
    crop_width: 768
    crop_height: 384
    chromatic_eigvec: 0.51
    chromatic_eigvec: 0.56
    chromatic_eigvec: 0.65
    chromatic_eigvec: 0.79
    chromatic_eigvec: 0.01
    chromatic_eigvec: -0.62
    chromatic_eigvec: 0.35
    chromatic_eigvec: -0.83
    chromatic_eigvec: 0.44
  }
}
layer {
  name: "FlowAugmentation1"
  type: "FlowAugmentation"
  bottom: "blob2"
  bottom: "blob6"
  bottom: "blob7"
  top: "flow_gt_aug"
  augmentation_param {
    crop_width: 768
    crop_height: 384
  }
}
layer {
  name: "Concat1"
  type: "Concat"
  bottom: "img0_aug"
  bottom: "img1_aug"
  top: "blob10"
  concat_param {
    axis: 1
  }
}
layer {
  name: "Eltwise3"
  type: "Eltwise"
  bottom: "flow_gt_aug"
  top: "blob11"
  eltwise_param {
    operation: SUM
    coeff: 0.05
  }
}
layer {
  name: "conv1"
  type: "Convolution"
  bottom: "blob10"
  top: "blob12"
  param {
    lr_mult: 0
    decay_mult: 0
  }
  param {
    lr_mult: 0
    decay_mult: 0
  }
  convolution_param {
    num_output: 24
    pad: 3
    kernel_size: 7
    stride: 2
    weight_filler {
      type: "msra"
    }
    bias_filler {
      type: "constant"
    }
    engine: CUDNN
  }
}
layer {
  name: "ReLU1"
  type: "ReLU"
  bottom: "blob12"
  top: "blob12"
  relu_param {
    negative_slope: 0.1
    engine: CUDNN
  }
}
layer {
  name: "conv2"
  type: "Convolution"
  bottom: "blob12"
  top: "blob13"
  param {
    lr_mult: 0
    decay_mult: 0
  }
  param {
    lr_mult: 0
    decay_mult: 0
  }
  convolution_param {
    num_output: 48
    pad: 2
    kernel_size: 5
    stride: 2
    weight_filler {
      type: "msra"
    }
    bias_filler {
      type: "constant"
    }
    engine: CUDNN
  }
}
layer {
  name: "ReLU2"
  type: "ReLU"
  bottom: "blob13"
  top: "blob13"
  relu_param {
    negative_slope: 0.1
    engine: CUDNN
  }
}
layer {
  name: "conv3"
  type: "Convolution"
  bottom: "blob13"
  top: "blob14"
  param {
    lr_mult: 0
    decay_mult: 0
  }
  param {
    lr_mult: 0
    decay_mult: 0
  }
  convolution_param {
    num_output: 96
    pad: 2
    kernel_size: 5
    stride: 2
    weight_filler {
      type: "msra"
    }
    bias_filler {
      type: "constant"
    }
    engine: CUDNN
  }
}
layer {
  name: "ReLU3"
  type: "ReLU"
  bottom: "blob14"
  top: "blob14"
  relu_param {
    negative_slope: 0.1
    engine: CUDNN
  }
}
layer {
  name: "conv3_1"
  type: "Convolution"
  bottom: "blob14"
  top: "blob15"
  param {
    lr_mult: 0
    decay_mult: 0
  }
  param {
    lr_mult: 0
    decay_mult: 0
  }
  convolution_param {
    num_output: 96
    pad: 1
    kernel_size: 3
    stride: 1
    weight_filler {
      type: "msra"
    }
    bias_filler {
      type: "constant"
    }
    engine: CUDNN
  }
}
layer {
  name: "ReLU4"
  type: "ReLU"
  bottom: "blob15"
  top: "blob15"
  relu_param {
    negative_slope: 0.1
    engine: CUDNN
  }
}
layer {
  name: "conv4"
  type: "Convolution"
  bottom: "blob15"
  top: "blob16"
  param {
    lr_mult: 0
    decay_mult: 0
  }
  param {
    lr_mult: 0
    decay_mult: 0
  }
  convolution_param {
    num_output: 192
    pad: 1
    kernel_size: 3
    stride: 2
    weight_filler {
      type: "msra"
    }
    bias_filler {
      type: "constant"
    }
    engine: CUDNN
  }
}
layer {
  name: "ReLU5"
  type: "ReLU"
  bottom: "blob16"
  top: "blob16"
  relu_param {
    negative_slope: 0.1
    engine: CUDNN
  }
}
layer {
  name: "conv4_1"
  type: "Convolution"
  bottom: "blob16"
  top: "blob17"
  param {
    lr_mult: 0
    decay_mult: 0
  }
  param {
    lr_mult: 0
    decay_mult: 0
  }
  convolution_param {
    num_output: 192
    pad: 1
    kernel_size: 3
    stride: 1
    weight_filler {
      type: "msra"
    }
    bias_filler {
      type: "constant"
    }
    engine: CUDNN
  }
}
layer {
  name: "ReLU6"
  type: "ReLU"
  bottom: "blob17"
  top: "blob17"
  relu_param {
    negative_slope: 0.1
    engine: CUDNN
  }
}
layer {
  name: "conv5"
  type: "Convolution"
  bottom: "blob17"
  top: "blob18"
  param {
    lr_mult: 0
    decay_mult: 0
  }
  param {
    lr_mult: 0
    decay_mult: 0
  }
  convolution_param {
    num_output: 192
    pad: 1
    kernel_size: 3
    stride: 2
    weight_filler {
      type: "msra"
    }
    bias_filler {
      type: "constant"
    }
    engine: CUDNN
  }
}
layer {
  name: "ReLU7"
  type: "ReLU"
  bottom: "blob18"
  top: "blob18"
  relu_param {
    negative_slope: 0.1
    engine: CUDNN
  }
}
layer {
  name: "conv5_1"
  type: "Convolution"
  bottom: "blob18"
  top: "blob19"
  param {
    lr_mult: 0
    decay_mult: 0
  }
  param {
    lr_mult: 0
    decay_mult: 0
  }
  convolution_param {
    num_output: 192
    pad: 1
    kernel_size: 3
    stride: 1
    weight_filler {
      type: "msra"
    }
    bias_filler {
      type: "constant"
    }
    engine: CUDNN
  }
}
layer {
  name: "ReLU8"
  type: "ReLU"
  bottom: "blob19"
  top: "blob19"
  relu_param {
    negative_slope: 0.1
    engine: CUDNN
  }
}
layer {
  name: "conv6"
  type: "Convolution"
  bottom: "blob19"
  top: "blob20"
  param {
    lr_mult: 0
    decay_mult: 0
  }
  param {
    lr_mult: 0
    decay_mult: 0
  }
  convolution_param {
    num_output: 384
    pad: 1
    kernel_size: 3
    stride: 2
    weight_filler {
      type: "msra"
    }
    bias_filler {
      type: "constant"
    }
    engine: CUDNN
  }
}
layer {
  name: "ReLU9"
  type: "ReLU"
  bottom: "blob20"
  top: "blob20"
  relu_param {
    negative_slope: 0.1
    engine: CUDNN
  }
}
layer {
  name: "conv6_1"
  type: "Convolution"
  bottom: "blob20"
  top: "blob21"
  param {
    lr_mult: 0
    decay_mult: 0
  }
  param {
    lr_mult: 0
    decay_mult: 0
  }
  convolution_param {
    num_output: 384
    pad: 1
    kernel_size: 3
    stride: 1
    weight_filler {
      type: "msra"
    }
    bias_filler {
      type: "constant"
    }
    engine: CUDNN
  }
}
layer {
  name: "ReLU10"
  type: "ReLU"
  bottom: "blob21"
  top: "blob21"
  relu_param {
    negative_slope: 0.1
    engine: CUDNN
  }
}
layer {
  name: "predict_conv6"
  type: "Convolution"
  bottom: "blob21"
  top: "blob22"
  param {
    lr_mult: 0
    decay_mult: 0
  }
  param {
    lr_mult: 0
    decay_mult: 0
  }
  convolution_param {
    num_output: 2
    pad: 1
    kernel_size: 3
    stride: 1
    weight_filler {
      type: "msra"
    }
    bias_filler {
      type: "constant"
    }
    engine: CUDNN
  }
}
layer {
  name: "deconv5"
  type: "Deconvolution"
  bottom: "blob21"
  top: "blob23"
  param {
    lr_mult: 0
    decay_mult: 0
  }
  param {
    lr_mult: 0
    decay_mult: 0
  }
  convolution_param {
    num_output: 192
    pad: 1
    kernel_size: 4
    stride: 2
    weight_filler {
      type: "msra"
    }
    bias_filler {
      type: "constant"
    }
    engine: CUDNN
  }
}
layer {
  name: "ReLU11"
  type: "ReLU"
  bottom: "blob23"
  top: "blob23"
  relu_param {
    negative_slope: 0.1
    engine: CUDNN
  }
}
layer {
  name: "upsample_flow6to5"
  type: "Deconvolution"
  bottom: "blob22"
  top: "blob24"
  param {
    lr_mult: 0
    decay_mult: 0
  }
  param {
    lr_mult: 0
    decay_mult: 0
  }
  convolution_param {
    num_output: 2
    pad: 1
    kernel_size: 4
    stride: 2
    weight_filler {
      type: "msra"
    }
    bias_filler {
      type: "constant"
    }
    engine: CUDNN
  }
}
layer {
  name: "Concat2"
  type: "Concat"
  bottom: "blob19"
  bottom: "blob23"
  bottom: "blob24"
  top: "blob25"
}
layer {
  name: "predict_conv5"
  type: "Convolution"
  bottom: "blob25"
  top: "blob26"
  param {
    lr_mult: 0
    decay_mult: 0
  }
  param {
    lr_mult: 0
    decay_mult: 0
  }
  convolution_param {
    num_output: 2
    pad: 1
    kernel_size: 3
    stride: 1
    weight_filler {
      type: "msra"
    }
    bias_filler {
      type: "constant"
    }
    engine: CUDNN
  }
}
layer {
  name: "deconv4"
  type: "Deconvolution"
  bottom: "blob25"
  top: "blob27"
  param {
    lr_mult: 0
    decay_mult: 0
  }
  param {
    lr_mult: 0
    decay_mult: 0
  }
  convolution_param {
    num_output: 96
    pad: 1
    kernel_size: 4
    stride: 2
    weight_filler {
      type: "msra"
    }
    bias_filler {
      type: "constant"
    }
    engine: CUDNN
  }
}
layer {
  name: "ReLU12"
  type: "ReLU"
  bottom: "blob27"
  top: "blob27"
  relu_param {
    negative_slope: 0.1
    engine: CUDNN
  }
}
layer {
  name: "upsample_flow5to4"
  type: "Deconvolution"
  bottom: "blob26"
  top: "blob28"
  param {
    lr_mult: 0
    decay_mult: 0
  }
  param {
    lr_mult: 0
    decay_mult: 0
  }
  convolution_param {
    num_output: 2
    pad: 1
    kernel_size: 4
    stride: 2
    weight_filler {
      type: "msra"
    }
    bias_filler {
      type: "constant"
    }
    engine: CUDNN
  }
}
layer {
  name: "Concat3"
  type: "Concat"
  bottom: "blob17"
  bottom: "blob27"
  bottom: "blob28"
  top: "blob29"
}
layer {
  name: "predict_conv4"
  type: "Convolution"
  bottom: "blob29"
  top: "blob30"
  param {
    lr_mult: 0
    decay_mult: 0
  }
  param {
    lr_mult: 0
    decay_mult: 0
  }
  convolution_param {
    num_output: 2
    pad: 1
    kernel_size: 3
    stride: 1
    weight_filler {
      type: "msra"
    }
    bias_filler {
      type: "constant"
    }
    engine: CUDNN
  }
}
layer {
  name: "deconv3"
  type: "Deconvolution"
  bottom: "blob29"
  top: "blob31"
  param {
    lr_mult: 0
    decay_mult: 0
  }
  param {
    lr_mult: 0
    decay_mult: 0
  }
  convolution_param {
    num_output: 48
    pad: 1
    kernel_size: 4
    stride: 2
    weight_filler {
      type: "msra"
    }
    bias_filler {
      type: "constant"
    }
    engine: CUDNN
  }
}
layer {
  name: "ReLU13"
  type: "ReLU"
  bottom: "blob31"
  top: "blob31"
  relu_param {
    negative_slope: 0.1
    engine: CUDNN
  }
}
layer {
  name: "upsample_flow4to3"
  type: "Deconvolution"
  bottom: "blob30"
  top: "blob32"
  param {
    lr_mult: 0
    decay_mult: 0
  }
  param {
    lr_mult: 0
    decay_mult: 0
  }
  convolution_param {
    num_output: 2
    pad: 1
    kernel_size: 4
    stride: 2
    weight_filler {
      type: "msra"
    }
    bias_filler {
      type: "constant"
    }
    engine: CUDNN
  }
}
layer {
  name: "Concat4"
  type: "Concat"
  bottom: "blob15"
  bottom: "blob31"
  bottom: "blob32"
  top: "blob33"
}
layer {
  name: "predict_conv3"
  type: "Convolution"
  bottom: "blob33"
  top: "blob34"
  param {
    lr_mult: 0
    decay_mult: 0
  }
  param {
    lr_mult: 0
    decay_mult: 0
  }
  convolution_param {
    num_output: 2
    pad: 1
    kernel_size: 3
    stride: 1
    weight_filler {
      type: "msra"
    }
    bias_filler {
      type: "constant"
    }
    engine: CUDNN
  }
}
layer {
  name: "deconv2"
  type: "Deconvolution"
  bottom: "blob33"
  top: "blob35"
  param {
    lr_mult: 0
    decay_mult: 0
  }
  param {
    lr_mult: 0
    decay_mult: 0
  }
  convolution_param {
    num_output: 24
    pad: 1
    kernel_size: 4
    stride: 2
    weight_filler {
      type: "msra"
    }
    bias_filler {
      type: "constant"
    }
    engine: CUDNN
  }
}
layer {
  name: "ReLU14"
  type: "ReLU"
  bottom: "blob35"
  top: "blob35"
  relu_param {
    negative_slope: 0.1
    engine: CUDNN
  }
}
layer {
  name: "upsample_flow3to2"
  type: "Deconvolution"
  bottom: "blob34"
  top: "blob36"
  param {
    lr_mult: 0
    decay_mult: 0
  }
  param {
    lr_mult: 0
    decay_mult: 0
  }
  convolution_param {
    num_output: 2
    pad: 1
    kernel_size: 4
    stride: 2
    weight_filler {
      type: "msra"
    }
    bias_filler {
      type: "constant"
    }
    engine: CUDNN
  }
}
layer {
  name: "Concat5"
  type: "Concat"
  bottom: "blob13"
  bottom: "blob35"
  bottom: "blob36"
  top: "blob37"
}
layer {
  name: "predict_conv2"
  type: "Convolution"
  bottom: "blob37"
  top: "blob38"
  param {
    lr_mult: 0
    decay_mult: 0
  }
  param {
    lr_mult: 0
    decay_mult: 0
  }
  convolution_param {
    num_output: 2
    pad: 1
    kernel_size: 3
    stride: 1
    weight_filler {
      type: "msra"
    }
    bias_filler {
      type: "constant"
    }
    engine: CUDNN
  }
}
layer {
  name: "Eltwise4"
  type: "Eltwise"
  bottom: "blob38"
  top: "blob39"
  eltwise_param {
    operation: SUM
    coeff: 20
  }
}
layer {
  name: "Accum1"
  type: "Accum"
  bottom: "blob39"
  bottom: "img0_aug"
  top: "blob40"
  accum_param {
    have_reference: true
  }
}
layer {
  name: "FlowWarp1"
  type: "FlowWarp"
  bottom: "img1_aug"
  bottom: "blob40"
  top: "blob41"
}
layer {
  name: "Eltwise5"
  type: "Eltwise"
  bottom: "img0_aug"
  bottom: "blob41"
  top: "blob42"
  eltwise_param {
    operation: SUM
    coeff: 1
    coeff: -1
  }
}
layer {
  name: "ChannelNorm1"
  type: "ChannelNorm"
  bottom: "blob42"
  top: "blob43"
}
layer {
  name: "Eltwise6"
  type: "Eltwise"
  bottom: "blob40"
  top: "blob44"
  eltwise_param {
    operation: SUM
    coeff: 0.05
  }
}
layer {
  name: "Concat6"
  type: "Concat"
  bottom: "img0_aug"
  bottom: "img1_aug"
  bottom: "blob41"
  bottom: "blob44"
  bottom: "blob43"
  top: "blob45"
  concat_param {
    axis: 1
  }
}
layer {
  name: "Eltwise7"
  type: "Eltwise"
  bottom: "flow_gt_aug"
  top: "blob46"
  eltwise_param {
    operation: SUM
    coeff: 0.05
  }
}
layer {
  name: "net2_conv1"
  type: "Convolution"
  bottom: "blob45"
  top: "blob47"
  param {
    lr_mult: 1
    decay_mult: 1
  }
  param {
    lr_mult: 1
    decay_mult: 0
  }
  convolution_param {
    num_output: 24
    pad: 3
    kernel_size: 7
    stride: 2
    weight_filler {
      type: "msra"
    }
    bias_filler {
      type: "constant"
    }
    engine: CUDNN
  }
}
layer {
  name: "ReLU15"
  type: "ReLU"
  bottom: "blob47"
  top: "blob47"
  relu_param {
    negative_slope: 0.1
    engine: CUDNN
  }
}
layer {
  name: "net2_conv2"
  type: "Convolution"
  bottom: "blob47"
  top: "blob48"
  param {
    lr_mult: 1
    decay_mult: 1
  }
  param {
    lr_mult: 1
    decay_mult: 0
  }
  convolution_param {
    num_output: 48
    pad: 2
    kernel_size: 5
    stride: 2
    weight_filler {
      type: "msra"
    }
    bias_filler {
      type: "constant"
    }
    engine: CUDNN
  }
}
layer {
  name: "ReLU16"
  type: "ReLU"
  bottom: "blob48"
  top: "blob48"
  relu_param {
    negative_slope: 0.1
    engine: CUDNN
  }
}
layer {
  name: "net2_conv3"
  type: "Convolution"
  bottom: "blob48"
  top: "blob49"
  param {
    lr_mult: 1
    decay_mult: 1
  }
  param {
    lr_mult: 1
    decay_mult: 0
  }
  convolution_param {
    num_output: 96
    pad: 2
    kernel_size: 5
    stride: 2
    weight_filler {
      type: "msra"
    }
    bias_filler {
      type: "constant"
    }
    engine: CUDNN
  }
}
layer {
  name: "ReLU17"
  type: "ReLU"
  bottom: "blob49"
  top: "blob49"
  relu_param {
    negative_slope: 0.1
    engine: CUDNN
  }
}
layer {
  name: "net2_conv3_1"
  type: "Convolution"
  bottom: "blob49"
  top: "blob50"
  param {
    lr_mult: 1
    decay_mult: 1
  }
  param {
    lr_mult: 1
    decay_mult: 0
  }
  convolution_param {
    num_output: 96
    pad: 1
    kernel_size: 3
    stride: 1
    weight_filler {
      type: "msra"
    }
    bias_filler {
      type: "constant"
    }
    engine: CUDNN
  }
}
layer {
  name: "ReLU18"
  type: "ReLU"
  bottom: "blob50"
  top: "blob50"
  relu_param {
    negative_slope: 0.1
    engine: CUDNN
  }
}
layer {
  name: "net2_conv4"
  type: "Convolution"
  bottom: "blob50"
  top: "blob51"
  param {
    lr_mult: 1
    decay_mult: 1
  }
  param {
    lr_mult: 1
    decay_mult: 0
  }
  convolution_param {
    num_output: 192
    pad: 1
    kernel_size: 3
    stride: 2
    weight_filler {
      type: "msra"
    }
    bias_filler {
      type: "constant"
    }
    engine: CUDNN
  }
}
layer {
  name: "ReLU19"
  type: "ReLU"
  bottom: "blob51"
  top: "blob51"
  relu_param {
    negative_slope: 0.1
    engine: CUDNN
  }
}
layer {
  name: "net2_conv4_1"
  type: "Convolution"
  bottom: "blob51"
  top: "blob52"
  param {
    lr_mult: 1
    decay_mult: 1
  }
  param {
    lr_mult: 1
    decay_mult: 0
  }
  convolution_param {
    num_output: 192
    pad: 1
    kernel_size: 3
    stride: 1
    weight_filler {
      type: "msra"
    }
    bias_filler {
      type: "constant"
    }
    engine: CUDNN
  }
}
layer {
  name: "ReLU20"
  type: "ReLU"
  bottom: "blob52"
  top: "blob52"
  relu_param {
    negative_slope: 0.1
    engine: CUDNN
  }
}
layer {
  name: "net2_conv5"
  type: "Convolution"
  bottom: "blob52"
  top: "blob53"
  param {
    lr_mult: 1
    decay_mult: 1
  }
  param {
    lr_mult: 1
    decay_mult: 0
  }
  convolution_param {
    num_output: 192
    pad: 1
    kernel_size: 3
    stride: 2
    weight_filler {
      type: "msra"
    }
    bias_filler {
      type: "constant"
    }
    engine: CUDNN
  }
}
layer {
  name: "ReLU21"
  type: "ReLU"
  bottom: "blob53"
  top: "blob53"
  relu_param {
    negative_slope: 0.1
    engine: CUDNN
  }
}
layer {
  name: "net2_conv5_1"
  type: "Convolution"
  bottom: "blob53"
  top: "blob54"
  param {
    lr_mult: 1
    decay_mult: 1
  }
  param {
    lr_mult: 1
    decay_mult: 0
  }
  convolution_param {
    num_output: 192
    pad: 1
    kernel_size: 3
    stride: 1
    weight_filler {
      type: "msra"
    }
    bias_filler {
      type: "constant"
    }
    engine: CUDNN
  }
}
layer {
  name: "ReLU22"
  type: "ReLU"
  bottom: "blob54"
  top: "blob54"
  relu_param {
    negative_slope: 0.1
    engine: CUDNN
  }
}
layer {
  name: "net2_conv6"
  type: "Convolution"
  bottom: "blob54"
  top: "blob55"
  param {
    lr_mult: 1
    decay_mult: 1
  }
  param {
    lr_mult: 1
    decay_mult: 0
  }
  convolution_param {
    num_output: 384
    pad: 1
    kernel_size: 3
    stride: 2
    weight_filler {
      type: "msra"
    }
    bias_filler {
      type: "constant"
    }
    engine: CUDNN
  }
}
layer {
  name: "ReLU23"
  type: "ReLU"
  bottom: "blob55"
  top: "blob55"
  relu_param {
    negative_slope: 0.1
    engine: CUDNN
  }
}
layer {
  name: "net2_conv6_1"
  type: "Convolution"
  bottom: "blob55"
  top: "blob56"
  param {
    lr_mult: 1
    decay_mult: 1
  }
  param {
    lr_mult: 1
    decay_mult: 0
  }
  convolution_param {
    num_output: 384
    pad: 1
    kernel_size: 3
    stride: 1
    weight_filler {
      type: "msra"
    }
    bias_filler {
      type: "constant"
    }
    engine: CUDNN
  }
}
layer {
  name: "ReLU24"
  type: "ReLU"
  bottom: "blob56"
  top: "blob56"
  relu_param {
    negative_slope: 0.1
    engine: CUDNN
  }
}
layer {
  name: "net2_predict_conv6"
  type: "Convolution"
  bottom: "blob56"
  top: "blob57"
  param {
    lr_mult: 1
    decay_mult: 1
  }
  param {
    lr_mult: 1
    decay_mult: 0
  }
  convolution_param {
    num_output: 2
    pad: 1
    kernel_size: 3
    stride: 1
    weight_filler {
      type: "msra"
    }
    bias_filler {
      type: "constant"
    }
    engine: CUDNN
  }
}
layer {
  name: "Downsample1"
  type: "Downsample"
  bottom: "blob46"
  bottom: "blob57"
  top: "blob58"
}
layer {
  name: "net2_flow_loss6"
  type: "L1Loss"
  bottom: "blob57"
  bottom: "blob58"
  top: "net2_flow_loss6"
  loss_weight: 0.32
  l1_loss_param {
    l2_per_location: true
  }
}
layer {
  name: "net2_deconv5"
  type: "Deconvolution"
  bottom: "blob56"
  top: "blob59"
  param {
    lr_mult: 1
    decay_mult: 0
  }
  param {
    lr_mult: 0
    decay_mult: 0
  }
  convolution_param {
    num_output: 192
    pad: 1
    kernel_size: 4
    stride: 2
    weight_filler {
      type: "msra"
    }
    bias_filler {
      type: "constant"
    }
    engine: CUDNN
  }
}
layer {
  name: "ReLU25"
  type: "ReLU"
  bottom: "blob59"
  top: "blob59"
  relu_param {
    negative_slope: 0.1
    engine: CUDNN
  }
}
layer {
  name: "net2_net2_upsample_flow6to5"
  type: "Deconvolution"
  bottom: "blob57"
  top: "blob60"
  param {
    lr_mult: 1
    decay_mult: 0
  }
  param {
    lr_mult: 0
    decay_mult: 0
  }
  convolution_param {
    num_output: 2
    pad: 1
    kernel_size: 4
    stride: 2
    weight_filler {
      type: "msra"
    }
    bias_filler {
      type: "constant"
    }
    engine: CUDNN
  }
}
layer {
  name: "Concat7"
  type: "Concat"
  bottom: "blob54"
  bottom: "blob59"
  bottom: "blob60"
  top: "blob61"
}
layer {
  name: "net2_predict_conv5"
  type: "Convolution"
  bottom: "blob61"
  top: "blob62"
  param {
    lr_mult: 1
    decay_mult: 1
  }
  param {
    lr_mult: 1
    decay_mult: 0
  }
  convolution_param {
    num_output: 2
    pad: 1
    kernel_size: 3
    stride: 1
    weight_filler {
      type: "msra"
    }
    bias_filler {
      type: "constant"
    }
    engine: CUDNN
  }
}
layer {
  name: "Downsample2"
  type: "Downsample"
  bottom: "blob46"
  bottom: "blob62"
  top: "blob63"
}
layer {
  name: "net2_flow_loss5"
  type: "L1Loss"
  bottom: "blob62"
  bottom: "blob63"
  top: "net2_flow_loss5"
  loss_weight: 0.08
  l1_loss_param {
    l2_per_location: true
  }
}
layer {
  name: "net2_deconv4"
  type: "Deconvolution"
  bottom: "blob61"
  top: "blob64"
  param {
    lr_mult: 1
    decay_mult: 0
  }
  param {
    lr_mult: 0
    decay_mult: 0
  }
  convolution_param {
    num_output: 96
    pad: 1
    kernel_size: 4
    stride: 2
    weight_filler {
      type: "msra"
    }
    bias_filler {
      type: "constant"
    }
    engine: CUDNN
  }
}
layer {
  name: "ReLU26"
  type: "ReLU"
  bottom: "blob64"
  top: "blob64"
  relu_param {
    negative_slope: 0.1
    engine: CUDNN
  }
}
layer {
  name: "net2_net2_upsample_flow5to4"
  type: "Deconvolution"
  bottom: "blob62"
  top: "blob65"
  param {
    lr_mult: 1
    decay_mult: 0
  }
  param {
    lr_mult: 0
    decay_mult: 0
  }
  convolution_param {
    num_output: 2
    pad: 1
    kernel_size: 4
    stride: 2
    weight_filler {
      type: "msra"
    }
    bias_filler {
      type: "constant"
    }
    engine: CUDNN
  }
}
layer {
  name: "Concat8"
  type: "Concat"
  bottom: "blob52"
  bottom: "blob64"
  bottom: "blob65"
  top: "blob66"
}
layer {
  name: "net2_predict_conv4"
  type: "Convolution"
  bottom: "blob66"
  top: "blob67"
  param {
    lr_mult: 1
    decay_mult: 1
  }
  param {
    lr_mult: 1
    decay_mult: 0
  }
  convolution_param {
    num_output: 2
    pad: 1
    kernel_size: 3
    stride: 1
    weight_filler {
      type: "msra"
    }
    bias_filler {
      type: "constant"
    }
    engine: CUDNN
  }
}
layer {
  name: "Downsample3"
  type: "Downsample"
  bottom: "blob46"
  bottom: "blob67"
  top: "blob68"
}
layer {
  name: "net2_flow_loss4"
  type: "L1Loss"
  bottom: "blob67"
  bottom: "blob68"
  top: "net2_flow_loss4"
  loss_weight: 0.02
  l1_loss_param {
    l2_per_location: true
  }
}
layer {
  name: "net2_deconv3"
  type: "Deconvolution"
  bottom: "blob66"
  top: "blob69"
  param {
    lr_mult: 1
    decay_mult: 0
  }
  param {
    lr_mult: 0
    decay_mult: 0
  }
  convolution_param {
    num_output: 48
    pad: 1
    kernel_size: 4
    stride: 2
    weight_filler {
      type: "msra"
    }
    bias_filler {
      type: "constant"
    }
    engine: CUDNN
  }
}
layer {
  name: "ReLU27"
  type: "ReLU"
  bottom: "blob69"
  top: "blob69"
  relu_param {
    negative_slope: 0.1
    engine: CUDNN
  }
}
layer {
  name: "net2_net2_upsample_flow4to3"
  type: "Deconvolution"
  bottom: "blob67"
  top: "blob70"
  param {
    lr_mult: 1
    decay_mult: 0
  }
  param {
    lr_mult: 0
    decay_mult: 0
  }
  convolution_param {
    num_output: 2
    pad: 1
    kernel_size: 4
    stride: 2
    weight_filler {
      type: "msra"
    }
    bias_filler {
      type: "constant"
    }
    engine: CUDNN
  }
}
layer {
…
I1114 13:46:00.112221  1019 layer_factory.hpp:77] Creating layer blob40_Accum1_0_split
I1114 13:46:00.112234  1019 net.cpp:93] Creating Layer blob40_Accum1_0_split
I1114 13:46:00.112246  1019 net.cpp:436] blob40_Accum1_0_split <- blob40
I1114 13:46:00.112253  1019 net.cpp:410] blob40_Accum1_0_split -> blob40_Accum1_0_split_0
I1114 13:46:00.112264  1019 net.cpp:410] blob40_Accum1_0_split -> blob40_Accum1_0_split_1
I1114 13:46:00.112329  1019 net.cpp:145] Setting up blob40_Accum1_0_split
I1114 13:46:00.112341  1019 net.cpp:152] Top shape: 1 2 384 768 (589824)
I1114 13:46:00.112347  1019 net.cpp:152] Top shape: 1 2 384 768 (589824)
I1114 13:46:00.112354  1019 net.cpp:160] Memory required for data: 233508400
I1114 13:46:00.112359  1019 net.cpp:184] DEBUG: need_backward = 0
I1114 13:46:00.112363  1019 layer_factory.hpp:77] Creating layer FlowWarp1
I1114 13:46:00.112371  1019 net.cpp:93] Creating Layer FlowWarp1
I1114 13:46:00.112380  1019 net.cpp:436] FlowWarp1 <- img1_aug_img1s_aug_0_split_1
I1114 13:46:00.112392  1019 net.cpp:436] FlowWarp1 <- blob40_Accum1_0_split_0
I1114 13:46:00.112406  1019 net.cpp:410] FlowWarp1 -> blob41
I1114 13:46:00.112483  1019 net.cpp:145] Setting up FlowWarp1
I1114 13:46:00.112498  1019 net.cpp:152] Top shape: 1 3 384 768 (884736)
I1114 13:46:00.112509  1019 net.cpp:160] Memory required for data: 237047344
I1114 13:46:00.112519  1019 net.cpp:184] DEBUG: need_backward = 0
I1114 13:46:00.112527  1019 layer_factory.hpp:77] Creating layer blob41_FlowWarp1_0_split
I1114 13:46:00.112540  1019 net.cpp:93] Creating Layer blob41_FlowWarp1_0_split
I1114 13:46:00.112550  1019 net.cpp:436] blob41_FlowWarp1_0_split <- blob41
I1114 13:46:00.112561  1019 net.cpp:410] blob41_FlowWarp1_0_split -> blob41_FlowWarp1_0_split_0
I1114 13:46:00.112576  1019 net.cpp:410] blob41_FlowWarp1_0_split -> blob41_FlowWarp1_0_split_1
I1114 13:46:00.112648  1019 net.cpp:145] Setting up blob41_FlowWarp1_0_split
I1114 13:46:00.112663  1019 net.cpp:152] Top shape: 1 3 384 768 (884736)
I1114 13:46:00.112675  1019 net.cpp:152] Top shape: 1 3 384 768 (884736)
I1114 13:46:00.112685  1019 net.cpp:160] Memory required for data: 244125232
I1114 13:46:00.112695  1019 net.cpp:184] DEBUG: need_backward = 0
I1114 13:46:00.112705  1019 layer_factory.hpp:77] Creating layer Eltwise5
I1114 13:46:00.112718  1019 net.cpp:93] Creating Layer Eltwise5
I1114 13:46:00.112728  1019 net.cpp:436] Eltwise5 <- img0_aug_img0s_aug_0_split_3
I1114 13:46:00.112740  1019 net.cpp:436] Eltwise5 <- blob41_FlowWarp1_0_split_0
I1114 13:46:00.112757  1019 net.cpp:410] Eltwise5 -> blob42
I1114 13:46:00.112809  1019 net.cpp:145] Setting up Eltwise5
I1114 13:46:00.112824  1019 net.cpp:152] Top shape: 1 3 384 768 (884736)
I1114 13:46:00.112834  1019 net.cpp:160] Memory required for data: 247664176
I1114 13:46:00.112846  1019 net.cpp:184] DEBUG: need_backward = 0
I1114 13:46:00.112855  1019 layer_factory.hpp:77] Creating layer ChannelNorm1
I1114 13:46:00.112871  1019 net.cpp:93] Creating Layer ChannelNorm1
I1114 13:46:00.112882  1019 net.cpp:436] ChannelNorm1 <- blob42
I1114 13:46:00.112896  1019 net.cpp:410] ChannelNorm1 -> blob43
I1114 13:46:00.112967  1019 net.cpp:145] Setting up ChannelNorm1
I1114 13:46:00.112984  1019 net.cpp:152] Top shape: 1 1 384 768 (294912)
I1114 13:46:00.112994  1019 net.cpp:160] Memory required for data: 248843824
I1114 13:46:00.113005  1019 net.cpp:184] DEBUG: need_backward = 0
I1114 13:46:00.113018  1019 layer_factory.hpp:77] Creating layer Eltwise6
I1114 13:46:00.113034  1019 net.cpp:93] Creating Layer Eltwise6
I1114 13:46:00.113046  1019 net.cpp:436] Eltwise6 <- blob40_Accum1_0_split_1
I1114 13:46:00.113061  1019 net.cpp:410] Eltwise6 -> blob44
I1114 13:46:00.113112  1019 net.cpp:145] Setting up Eltwise6
I1114 13:46:00.113127  1019 net.cpp:152] Top shape: 1 2 384 768 (589824)
I1114 13:46:00.113137  1019 net.cpp:160] Memory required for data: 251203120
I1114 13:46:00.113145  1019 net.cpp:184] DEBUG: need_backward = 0
I1114 13:46:00.113157  1019 layer_factory.hpp:77] Creating layer Concat6
I1114 13:46:00.113169  1019 net.cpp:93] Creating Layer Concat6
I1114 13:46:00.113183  1019 net.cpp:436] Concat6 <- img0_aug_img0s_aug_0_split_4
I1114 13:46:00.113196  1019 net.cpp:436] Concat6 <- img1_aug_img1s_aug_0_split_2
I1114 13:46:00.113210  1019 net.cpp:436] Concat6 <- blob41_FlowWarp1_0_split_1
I1114 13:46:00.113224  1019 net.cpp:436] Concat6 <- blob44
I1114 13:46:00.113237  1019 net.cpp:436] Concat6 <- blob43
I1114 13:46:00.113267  1019 net.cpp:410] Concat6 -> blob45
I1114 13:46:00.113322  1019 net.cpp:145] Setting up Concat6
I1114 13:46:00.113339  1019 net.cpp:152] Top shape: 1 12 384 768 (3538944)
I1114 13:46:00.113349  1019 net.cpp:160] Memory required for data: 265358896
I1114 13:46:00.113359  1019 net.cpp:184] DEBUG: need_backward = 0
I1114 13:46:00.113369  1019 layer_factory.hpp:77] Creating layer Eltwise7
I1114 13:46:00.113384  1019 net.cpp:93] Creating Layer Eltwise7
I1114 13:46:00.113394  1019 net.cpp:436] Eltwise7 <- flow_gt_aug_FlowAugmentation1_0_split_1
I1114 13:46:00.113406  1019 net.cpp:410] Eltwise7 -> blob46
I1114 13:46:00.113458  1019 net.cpp:145] Setting up Eltwise7
I1114 13:46:00.113472  1019 net.cpp:152] Top shape: 1 2 384 768 (589824)
I1114 13:46:00.113482  1019 net.cpp:160] Memory required for data: 267718192
I1114 13:46:00.113492  1019 net.cpp:184] DEBUG: need_backward = 0
I1114 13:46:00.113502  1019 layer_factory.hpp:77] Creating layer blob46_Eltwise7_0_split
I1114 13:46:00.113517  1019 net.cpp:93] Creating Layer blob46_Eltwise7_0_split
I1114 13:46:00.113529  1019 net.cpp:436] blob46_Eltwise7_0_split <- blob46
I1114 13:46:00.113544  1019 net.cpp:410] blob46_Eltwise7_0_split -> blob46_Eltwise7_0_split_0
I1114 13:46:00.113556  1019 net.cpp:410] blob46_Eltwise7_0_split -> blob46_Eltwise7_0_split_1
I1114 13:46:00.113566  1019 net.cpp:410] blob46_Eltwise7_0_split -> blob46_Eltwise7_0_split_2
I1114 13:46:00.113575  1019 net.cpp:410] blob46_Eltwise7_0_split -> blob46_Eltwise7_0_split_3
I1114 13:46:00.113585  1019 net.cpp:410] blob46_Eltwise7_0_split -> blob46_Eltwise7_0_split_4
I1114 13:46:00.113703  1019 net.cpp:145] Setting up blob46_Eltwise7_0_split
I1114 13:46:00.113716  1019 net.cpp:152] Top shape: 1 2 384 768 (589824)
I1114 13:46:00.113723  1019 net.cpp:152] Top shape: 1 2 384 768 (589824)
I1114 13:46:00.113729  1019 net.cpp:152] Top shape: 1 2 384 768 (589824)
I1114 13:46:00.113736  1019 net.cpp:152] Top shape: 1 2 384 768 (589824)
I1114 13:46:00.113744  1019 net.cpp:152] Top shape: 1 2 384 768 (589824)
I1114 13:46:00.113749  1019 net.cpp:160] Memory required for data: 279514672
I1114 13:46:00.113754  1019 net.cpp:184] DEBUG: need_backward = 0
I1114 13:46:00.113760  1019 layer_factory.hpp:77] Creating layer net2_conv1
I1114 13:46:00.113775  1019 net.cpp:93] Creating Layer net2_conv1
I1114 13:46:00.113782  1019 net.cpp:436] net2_conv1 <- blob45
I1114 13:46:00.113800  1019 net.cpp:410] net2_conv1 -> blob47
I1114 13:46:00.116274  1019 net.cpp:145] Setting up net2_conv1
I1114 13:46:00.116291  1019 net.cpp:152] Top shape: 1 24 192 384 (1769472)
I1114 13:46:00.116297  1019 net.cpp:160] Memory required for data: 286592560
I1114 13:46:00.116305  1019 net.cpp:184] DEBUG: need_backward = 1
I1114 13:46:00.116328  1019 layer_factory.hpp:77] Creating layer ReLU15
I1114 13:46:00.116338  1019 net.cpp:93] Creating Layer ReLU15
I1114 13:46:00.116345  1019 net.cpp:436] ReLU15 <- blob47
I1114 13:46:00.116354  1019 net.cpp:397] ReLU15 -> blob47 (in-place)
I1114 13:46:00.116580  1019 net.cpp:145] Setting up ReLU15
I1114 13:46:00.116597  1019 net.cpp:152] Top shape: 1 24 192 384 (1769472)
I1114 13:46:00.116602  1019 net.cpp:160] Memory required for data: 293670448
I1114 13:46:00.116608  1019 net.cpp:184] DEBUG: need_backward = 1
I1114 13:46:00.116619  1019 layer_factory.hpp:77] Creating layer net2_conv2
I1114 13:46:00.116639  1019 net.cpp:93] Creating Layer net2_conv2
I1114 13:46:00.116649  1019 net.cpp:436] net2_conv2 <- blob47
I1114 13:46:00.116665  1019 net.cpp:410] net2_conv2 -> blob48
I1114 13:46:00.120323  1019 net.cpp:145] Setting up net2_conv2
I1114 13:46:00.120344  1019 net.cpp:152] Top shape: 1 48 96 192 (884736)
I1114 13:46:00.120357  1019 net.cpp:160] Memory required for data: 297209392
I1114 13:46:00.120368  1019 net.cpp:184] DEBUG: need_backward = 1
I1114 13:46:00.120379  1019 layer_factory.hpp:77] Creating layer ReLU16
I1114 13:46:00.120395  1019 net.cpp:93] Creating Layer ReLU16
I1114 13:46:00.120406  1019 net.cpp:436] ReLU16 <- blob48
I1114 13:46:00.120420  1019 net.cpp:397] ReLU16 -> blob48 (in-place)
I1114 13:46:00.121048  1019 net.cpp:145] Setting up ReLU16
I1114 13:46:00.121065  1019 net.cpp:152] Top shape: 1 48 96 192 (884736)
I1114 13:46:00.121076  1019 net.cpp:160] Memory required for data: 300748336
I1114 13:46:00.121086  1019 net.cpp:184] DEBUG: need_backward = 1
I1114 13:46:00.121096  1019 layer_factory.hpp:77] Creating layer blob48_ReLU16_0_split
I1114 13:46:00.121110  1019 net.cpp:93] Creating Layer blob48_ReLU16_0_split
I1114 13:46:00.121124  1019 net.cpp:436] blob48_ReLU16_0_split <- blob48
I1114 13:46:00.121140  1019 net.cpp:410] blob48_ReLU16_0_split -> blob48_ReLU16_0_split_0
I1114 13:46:00.121160  1019 net.cpp:410] blob48_ReLU16_0_split -> blob48_ReLU16_0_split_1
I1114 13:46:00.121243  1019 net.cpp:145] Setting up blob48_ReLU16_0_split
I1114 13:46:00.121258  1019 net.cpp:152] Top shape: 1 48 96 192 (884736)
I1114 13:46:00.121268  1019 net.cpp:152] Top shape: 1 48 96 192 (884736)
I1114 13:46:00.121279  1019 net.cpp:160] Memory required for data: 307826224
I1114 13:46:00.121285  1019 net.cpp:184] DEBUG: need_backward = 1
I1114 13:46:00.121296  1019 layer_factory.hpp:77] Creating layer net2_conv3
I1114 13:46:00.121317  1019 net.cpp:93] Creating Layer net2_conv3
I1114 13:46:00.121328  1019 net.cpp:436] net2_conv3 <- blob48_ReLU16_0_split_0
I1114 13:46:00.121343  1019 net.cpp:410] net2_conv3 -> blob49
I1114 13:46:00.127082  1019 net.cpp:145] Setting up net2_conv3
I1114 13:46:00.127100  1019 net.cpp:152] Top shape: 1 96 48 96 (442368)
I1114 13:46:00.127168  1019 net.cpp:160] Memory required for data: 309595696
I1114 13:46:00.127187  1019 net.cpp:184] DEBUG: need_backward = 1
I1114 13:46:00.127202  1019 layer_factory.hpp:77] Creating layer ReLU17
I1114 13:46:00.127220  1019 net.cpp:93] Creating Layer ReLU17
I1114 13:46:00.127233  1019 net.cpp:436] ReLU17 <- blob49
I1114 13:46:00.127249  1019 net.cpp:397] ReLU17 -> blob49 (in-place)
I1114 13:46:00.127483  1019 net.cpp:145] Setting up ReLU17
I1114 13:46:00.127498  1019 net.cpp:152] Top shape: 1 96 48 96 (442368)
I1114 13:46:00.127504  1019 net.cpp:160] Memory required for data: 311365168
I1114 13:46:00.127508  1019 net.cpp:184] DEBUG: need_backward = 1
I1114 13:46:00.127513  1019 layer_factory.hpp:77] Creating layer net2_conv3_1
I1114 13:46:00.127524  1019 net.cpp:93] Creating Layer net2_conv3_1
I1114 13:46:00.127530  1019 net.cpp:436] net2_conv3_1 <- blob49
I1114 13:46:00.127539  1019 net.cpp:410] net2_conv3_1 -> blob50
I1114 13:46:00.132452  1019 net.cpp:145] Setting up net2_conv3_1
I1114 13:46:00.132469  1019 net.cpp:152] Top shape: 1 96 48 96 (442368)
I1114 13:46:00.132474  1019 net.cpp:160] Memory required for data: 313134640
I1114 13:46:00.132488  1019 net.cpp:184] DEBUG: need_backward = 1
I1114 13:46:00.132501  1019 layer_factory.hpp:77] Creating layer ReLU18
I1114 13:46:00.132540  1019 net.cpp:93] Creating Layer ReLU18
I1114 13:46:00.132553  1019 net.cpp:436] ReLU18 <- blob50
I1114 13:46:00.132570  1019 net.cpp:397] ReLU18 -> blob50 (in-place)
I1114 13:46:00.133208  1019 net.cpp:145] Setting up ReLU18
I1114 13:46:00.133225  1019 net.cpp:152] Top shape: 1 96 48 96 (442368)
I1114 13:46:00.133231  1019 net.cpp:160] Memory required for data: 314904112
I1114 13:46:00.133242  1019 net.cpp:184] DEBUG: need_backward = 1
I1114 13:46:00.133255  1019 layer_factory.hpp:77] Creating layer blob50_ReLU18_0_split
I1114 13:46:00.133270  1019 net.cpp:93] Creating Layer blob50_ReLU18_0_split
I1114 13:46:00.133281  1019 net.cpp:436] blob50_ReLU18_0_split <- blob50
I1114 13:46:00.133296  1019 net.cpp:410] blob50_ReLU18_0_split -> blob50_ReLU18_0_split_0
I1114 13:46:00.133313  1019 net.cpp:410] blob50_ReLU18_0_split -> blob50_ReLU18_0_split_1
I1114 13:46:00.133393  1019 net.cpp:145] Setting up blob50_ReLU18_0_split
I1114 13:46:00.133409  1019 net.cpp:152] Top shape: 1 96 48 96 (442368)
I1114 13:46:00.133414  1019 net.cpp:152] Top shape: 1 96 48 96 (442368)
I1114 13:46:00.133421  1019 net.cpp:160] Memory required for data: 318443056
I1114 13:46:00.133432  1019 net.cpp:184] DEBUG: need_backward = 1
I1114 13:46:00.133443  1019 layer_factory.hpp:77] Creating layer net2_conv4
I1114 13:46:00.133463  1019 net.cpp:93] Creating Layer net2_conv4
I1114 13:46:00.133474  1019 net.cpp:436] net2_conv4 <- blob50_ReLU18_0_split_0
I1114 13:46:00.133487  1019 net.cpp:410] net2_conv4 -> blob51
I1114 13:46:00.140645  1019 net.cpp:145] Setting up net2_conv4
I1114 13:46:00.140661  1019 net.cpp:152] Top shape: 1 192 24 48 (221184)
I1114 13:46:00.140666  1019 net.cpp:160] Memory required for data: 319327792
I1114 13:46:00.140677  1019 net.cpp:184] DEBUG: need_backward = 1
I1114 13:46:00.140682  1019 layer_factory.hpp:77] Creating layer ReLU19
I1114 13:46:00.140691  1019 net.cpp:93] Creating Layer ReLU19
I1114 13:46:00.140697  1019 net.cpp:436] ReLU19 <- blob51
I1114 13:46:00.140703  1019 net.cpp:397] ReLU19 -> blob51 (in-place)
I1114 13:46:00.141335  1019 net.cpp:145] Setting up ReLU19
I1114 13:46:00.141352  1019 net.cpp:152] Top shape: 1 192 24 48 (221184)
I1114 13:46:00.141357  1019 net.cpp:160] Memory required for data: 320212528
I1114 13:46:00.141362  1019 net.cpp:184] DEBUG: need_backward = 1
I1114 13:46:00.141367  1019 layer_factory.hpp:77] Creating layer net2_conv4_1
I1114 13:46:00.141378  1019 net.cpp:93] Creating Layer net2_conv4_1
I1114 13:46:00.141384  1019 net.cpp:436] net2_conv4_1 <- blob51
I1114 13:46:00.141393  1019 net.cpp:410] net2_conv4_1 -> blob52
I1114 13:46:00.156172  1019 net.cpp:145] Setting up net2_conv4_1
I1114 13:46:00.156189  1019 net.cpp:152] Top shape: 1 192 24 48 (221184)
I1114 13:46:00.156194  1019 net.cpp:160] Memory required for data: 321097264
I1114 13:46:00.156208  1019 net.cpp:184] DEBUG: need_backward = 1
I1114 13:46:00.156291  1019 layer_factory.hpp:77] Creating layer ReLU20
I1114 13:46:00.156301  1019 net.cpp:93] Creating Layer ReLU20
I1114 13:46:00.156312  1019 net.cpp:436] ReLU20 <- blob52
I1114 13:46:00.156321  1019 net.cpp:397] ReLU20 -> blob52 (in-place)
I1114 13:46:00.156559  1019 net.cpp:145] Setting up ReLU20
I1114 13:46:00.156576  1019 net.cpp:152] Top shape: 1 192 24 48 (221184)
I1114 13:46:00.156581  1019 net.cpp:160] Memory required for data: 321982000
I1114 13:46:00.156586  1019 net.cpp:184] DEBUG: need_backward = 1
I1114 13:46:00.156590  1019 layer_factory.hpp:77] Creating layer blob52_ReLU20_0_split
I1114 13:46:00.156599  1019 net.cpp:93] Creating Layer blob52_ReLU20_0_split
I1114 13:46:00.156603  1019 net.cpp:436] blob52_ReLU20_0_split <- blob52
I1114 13:46:00.156610  1019 net.cpp:410] blob52_ReLU20_0_split -> blob52_ReLU20_0_split_0
I1114 13:46:00.156620  1019 net.cpp:410] blob52_ReLU20_0_split -> blob52_ReLU20_0_split_1
I1114 13:46:00.156689  1019 net.cpp:145] Setting up blob52_ReLU20_0_split
I1114 13:46:00.156703  1019 net.cpp:152] Top shape: 1 192 24 48 (221184)
I1114 13:46:00.156710  1019 net.cpp:152] Top shape: 1 192 24 48 (221184)
I1114 13:46:00.156735  1019 net.cpp:160] Memory required for data: 323751472
I1114 13:46:00.156743  1019 net.cpp:184] DEBUG: need_backward = 1
I1114 13:46:00.156751  1019 layer_factory.hpp:77] Creating layer net2_conv5
I1114 13:46:00.156769  1019 net.cpp:93] Creating Layer net2_conv5
I1114 13:46:00.156777  1019 net.cpp:436] net2_conv5 <- blob52_ReLU20_0_split_0
I1114 13:46:00.156785  1019 net.cpp:410] net2_conv5 -> blob53
I1114 13:46:00.171319  1019 net.cpp:145] Setting up net2_conv5
I1114 13:46:00.171340  1019 net.cpp:152] Top shape: 1 192 12 24 (55296)
I1114 13:46:00.171346  1019 net.cpp:160] Memory required for data: 323972656
I1114 13:46:00.171370  1019 net.cpp:184] DEBUG: need_backward = 1
I1114 13:46:00.171375  1019 layer_factory.hpp:77] Creating layer ReLU21
I1114 13:46:00.171385  1019 net.cpp:93] Creating Layer ReLU21
I1114 13:46:00.171391  1019 net.cpp:436] ReLU21 <- blob53
I1114 13:46:00.171397  1019 net.cpp:397] ReLU21 -> blob53 (in-place)
I1114 13:46:00.171622  1019 net.cpp:145] Setting up ReLU21
I1114 13:46:00.171640  1019 net.cpp:152] Top shape: 1 192 12 24 (55296)
I1114 13:46:00.171651  1019 net.cpp:160] Memory required for data: 324193840
I1114 13:46:00.171656  1019 net.cpp:184] DEBUG: need_backward = 1
I1114 13:46:00.171661  1019 layer_factory.hpp:77] Creating layer net2_conv5_1
I1114 13:46:00.171674  1019 net.cpp:93] Creating Layer net2_conv5_1
I1114 13:46:00.171679  1019 net.cpp:436] net2_conv5_1 <- blob53
I1114 13:46:00.171687  1019 net.cpp:410] net2_conv5_1 -> blob54
I1114 13:46:00.186494  1019 net.cpp:145] Setting up net2_conv5_1
I1114 13:46:00.186514  1019 net.cpp:152] Top shape: 1 192 12 24 (55296)
I1114 13:46:00.186522  1019 net.cpp:160] Memory required for data: 324415024
I1114 13:46:00.186532  1019 net.cpp:184] DEBUG: need_backward = 1
I1114 13:46:00.186537  1019 layer_factory.hpp:77] Creating layer ReLU22
I1114 13:46:00.186545  1019 net.cpp:93] Creating Layer ReLU22
I1114 13:46:00.186552  1019 net.cpp:436] ReLU22 <- blob54
I1114 13:46:00.186558  1019 net.cpp:397] ReLU22 -> blob54 (in-place)
I1114 13:46:00.186784  1019 net.cpp:145] Setting up ReLU22
I1114 13:46:00.186799  1019 net.cpp:152] Top shape: 1 192 12 24 (55296)
I1114 13:46:00.186803  1019 net.cpp:160] Memory required for data: 324636208
I1114 13:46:00.186808  1019 net.cpp:184] DEBUG: need_backward = 1
I1114 13:46:00.186812  1019 layer_factory.hpp:77] Creating layer blob54_ReLU22_0_split
I1114 13:46:00.186820  1019 net.cpp:93] Creating Layer blob54_ReLU22_0_split
I1114 13:46:00.186825  1019 net.cpp:436] blob54_ReLU22_0_split <- blob54
I1114 13:46:00.186833  1019 net.cpp:410] blob54_ReLU22_0_split -> blob54_ReLU22_0_split_0
I1114 13:46:00.186842  1019 net.cpp:410] blob54_ReLU22_0_split -> blob54_ReLU22_0_split_1
I1114 13:46:00.186906  1019 net.cpp:145] Setting up blob54_ReLU22_0_split
I1114 13:46:00.186919  1019 net.cpp:152] Top shape: 1 192 12 24 (55296)
I1114 13:46:00.186925  1019 net.cpp:152] Top shape: 1 192 12 24 (55296)
I1114 13:46:00.186930  1019 net.cpp:160] Memory required for data: 325078576
I1114 13:46:00.186934  1019 net.cpp:184] DEBUG: need_backward = 1
I1114 13:46:00.186939  1019 layer_factory.hpp:77] Creating layer net2_conv6
I1114 13:46:00.186950  1019 net.cpp:93] Creating Layer net2_conv6
I1114 13:46:00.186956  1019 net.cpp:436] net2_conv6 <- blob54_ReLU22_0_split_0
I1114 13:46:00.186967  1019 net.cpp:410] net2_conv6 -> blob55
I1114 13:46:00.213963  1019 net.cpp:145] Setting up net2_conv6
I1114 13:46:00.213984  1019 net.cpp:152] Top shape: 1 384 6 12 (27648)
I1114 13:46:00.213992  1019 net.cpp:160] Memory required for data: 325189168
I1114 13:46:00.214002  1019 net.cpp:184] DEBUG: need_backward = 1
I1114 13:46:00.214007  1019 layer_factory.hpp:77] Creating layer ReLU23
I1114 13:46:00.214017  1019 net.cpp:93] Creating Layer ReLU23
I1114 13:46:00.214023  1019 net.cpp:436] ReLU23 <- blob55
I1114 13:46:00.214031  1019 net.cpp:397] ReLU23 -> blob55 (in-place)
I1114 13:46:00.214251  1019 net.cpp:145] Setting up ReLU23
I1114 13:46:00.214267  1019 net.cpp:152] Top shape: 1 384 6 12 (27648)
I1114 13:46:00.214273  1019 net.cpp:160] Memory required for data: 325299760
I1114 13:46:00.214305  1019 net.cpp:184] DEBUG: need_backward = 1
I1114 13:46:00.214311  1019 layer_factory.hpp:77] Creating layer net2_conv6_1
I1114 13:46:00.214324  1019 net.cpp:93] Creating Layer net2_conv6_1
I1114 13:46:00.214331  1019 net.cpp:436] net2_conv6_1 <- blob55
I1114 13:46:00.214340  1019 net.cpp:410] net2_conv6_1 -> blob56
I1114 13:46:00.266211  1019 net.cpp:145] Setting up net2_conv6_1
I1114 13:46:00.266242  1019 net.cpp:152] Top shape: 1 384 6 12 (27648)
I1114 13:46:00.266250  1019 net.cpp:160] Memory required for data: 325410352
I1114 13:46:00.266260  1019 net.cpp:184] DEBUG: need_backward = 1
I1114 13:46:00.266266  1019 layer_factory.hpp:77] Creating layer ReLU24
I1114 13:46:00.266278  1019 net.cpp:93] Creating Layer ReLU24
I1114 13:46:00.266285  1019 net.cpp:436] ReLU24 <- blob56
I1114 13:46:00.266294  1019 net.cpp:397] ReLU24 -> blob56 (in-place)
I1114 13:46:00.266942  1019 net.cpp:145] Setting up ReLU24
I1114 13:46:00.266959  1019 net.cpp:152] Top shape: 1 384 6 12 (27648)
I1114 13:46:00.266964  1019 net.cpp:160] Memory required for data: 325520944
I1114 13:46:00.266969  1019 net.cpp:184] DEBUG: need_backward = 1
I1114 13:46:00.266974  1019 layer_factory.hpp:77] Creating layer blob56_ReLU24_0_split
I1114 13:46:00.266983  1019 net.cpp:93] Creating Layer blob56_ReLU24_0_split
I1114 13:46:00.266990  1019 net.cpp:436] blob56_ReLU24_0_split <- blob56
I1114 13:46:00.266999  1019 net.cpp:410] blob56_ReLU24_0_split -> blob56_ReLU24_0_split_0
I1114 13:46:00.267009  1019 net.cpp:410] blob56_ReLU24_0_split -> blob56_ReLU24_0_split_1
I1114 13:46:00.267078  1019 net.cpp:145] Setting up blob56_ReLU24_0_split
I1114 13:46:00.267092  1019 net.cpp:152] Top shape: 1 384 6 12 (27648)
I1114 13:46:00.267098  1019 net.cpp:152] Top shape: 1 384 6 12 (27648)
I1114 13:46:00.267103  1019 net.cpp:160] Memory required for data: 325742128
I1114 13:46:00.267107  1019 net.cpp:184] DEBUG: need_backward = 1
I1114 13:46:00.267112  1019 layer_factory.hpp:77] Creating layer net2_predict_conv6
I1114 13:46:00.267127  1019 net.cpp:93] Creating Layer net2_predict_conv6
I1114 13:46:00.267133  1019 net.cpp:436] net2_predict_conv6 <- blob56_ReLU24_0_split_0
I1114 13:46:00.267141  1019 net.cpp:410] net2_predict_conv6 -> blob57
I1114 13:46:00.268904  1019 net.cpp:145] Setting up net2_predict_conv6
I1114 13:46:00.268921  1019 net.cpp:152] Top shape: 1 2 6 12 (144)
I1114 13:46:00.268926  1019 net.cpp:160] Memory required for data: 325742704
I1114 13:46:00.268935  1019 net.cpp:184] DEBUG: need_backward = 1
I1114 13:46:00.268942  1019 layer_factory.hpp:77] Creating layer blob57_net2_predict_conv6_0_split
I1114 13:46:00.268950  1019 net.cpp:93] Creating Layer blob57_net2_predict_conv6_0_split
I1114 13:46:00.268957  1019 net.cpp:436] blob57_net2_predict_conv6_0_split <- blob57
I1114 13:46:00.268965  1019 net.cpp:410] blob57_net2_predict_conv6_0_split -> blob57_net2_predict_conv6_0_split_0
I1114 13:46:00.268976  1019 net.cpp:410] blob57_net2_predict_conv6_0_split -> blob57_net2_predict_conv6_0_split_1
I1114 13:46:00.268986  1019 net.cpp:410] blob57_net2_predict_conv6_0_split -> blob57_net2_predict_conv6_0_split_2
I1114 13:46:00.269081  1019 net.cpp:145] Setting up blob57_net2_predict_conv6_0_split
I1114 13:46:00.269095  1019 net.cpp:152] Top shape: 1 2 6 12 (144)
I1114 13:46:00.269103  1019 net.cpp:152] Top shape: 1 2 6 12 (144)
I1114 13:46:00.269107  1019 net.cpp:152] Top shape: 1 2 6 12 (144)
I1114 13:46:00.269112  1019 net.cpp:160] Memory required for data: 325744432
I1114 13:46:00.269116  1019 net.cpp:184] DEBUG: need_backward = 1
I1114 13:46:00.269121  1019 layer_factory.hpp:77] Creating layer Downsample1
I1114 13:46:00.269129  1019 net.cpp:93] Creating Layer Downsample1
I1114 13:46:00.269136  1019 net.cpp:436] Downsample1 <- blob46_Eltwise7_0_split_0
I1114 13:46:00.269143  1019 net.cpp:436] Downsample1 <- blob57_net2_predict_conv6_0_split_0
I1114 13:46:00.269153  1019 net.cpp:410] Downsample1 -> blob58
W1114 13:46:00.269162  1019 downsample_layer.cpp:25] DownsampleLayer only runs Reshape on setup
I1114 13:46:00.269273  1019 net.cpp:145] Setting up Downsample1
I1114 13:46:00.269286  1019 net.cpp:152] Top shape: 1 2 6 12 (144)
I1114 13:46:00.269291  1019 net.cpp:160] Memory required for data: 325745008
I1114 13:46:00.269296  1019 net.cpp:184] DEBUG: need_backward = 0
I1114 13:46:00.269301  1019 layer_factory.hpp:77] Creating layer net2_flow_loss6
I1114 13:46:00.269311  1019 net.cpp:93] Creating Layer net2_flow_loss6
I1114 13:46:00.269320  1019 net.cpp:436] net2_flow_loss6 <- blob57_net2_predict_conv6_0_split_1
I1114 13:46:00.269326  1019 net.cpp:436] net2_flow_loss6 <- blob58
I1114 13:46:00.269336  1019 net.cpp:410] net2_flow_loss6 -> net2_flow_loss6
I1114 13:46:00.269980  1019 net.cpp:145] Setting up net2_flow_loss6
I1114 13:46:00.269999  1019 net.cpp:152] Top shape: (1)
I1114 13:46:00.270007  1019 net.cpp:155]     with loss weight 0.32
I1114 13:46:00.270030  1019 net.cpp:160] Memory required for data: 325745012
I1114 13:46:00.270040  1019 net.cpp:184] DEBUG: need_backward = 1
I1114 13:46:00.270051  1019 layer_factory.hpp:77] Creating layer net2_deconv5
I1114 13:46:00.270071  1019 net.cpp:93] Creating Layer net2_deconv5
I1114 13:46:00.270084  1019 net.cpp:436] net2_deconv5 <- blob56_ReLU24_0_split_1
I1114 13:46:00.270100  1019 net.cpp:410] net2_deconv5 -> blob59
I1114 13:46:00.315204  1019 net.cpp:145] Setting up net2_deconv5
I1114 13:46:00.315233  1019 net.cpp:152] Top shape: 1 192 12 24 (55296)
I1114 13:46:00.315243  1019 net.cpp:160] Memory required for data: 325966196
I1114 13:46:00.315258  1019 net.cpp:184] DEBUG: need_backward = 1
I1114 13:46:00.315270  1019 layer_factory.hpp:77] Creating layer ReLU25
I1114 13:46:00.315289  1019 net.cpp:93] Creating Layer ReLU25
I1114 13:46:00.315304  1019 net.cpp:436] ReLU25 <- blob59
I1114 13:46:00.315318  1019 net.cpp:397] ReLU25 -> blob59 (in-place)
I1114 13:46:00.316077  1019 net.cpp:145] Setting up ReLU25
I1114 13:46:00.316095  1019 net.cpp:152] Top shape: 1 192 12 24 (55296)
I1114 13:46:00.316105  1019 net.cpp:160] Memory required for data: 326187380
I1114 13:46:00.316114  1019 net.cpp:184] DEBUG: need_backward = 1
I1114 13:46:00.316125  1019 layer_factory.hpp:77] Creating layer net2_net2_upsample_flow6to5
I1114 13:46:00.316144  1019 net.cpp:93] Creating Layer net2_net2_upsample_flow6to5
I1114 13:46:00.316159  1019 net.cpp:436] net2_net2_upsample_flow6to5 <- blob57_net2_predict_conv6_0_split_2
I1114 13:46:00.316176  1019 net.cpp:410] net2_net2_upsample_flow6to5 -> blob60
I1114 13:46:00.316632  1019 net.cpp:145] Setting up net2_net2_upsample_flow6to5
I1114 13:46:00.316651  1019 net.cpp:152] Top shape: 1 2 12 24 (576)
I1114 13:46:00.316660  1019 net.cpp:160] Memory required for data: 326189684
I1114 13:46:00.316679  1019 net.cpp:184] DEBUG: need_backward = 1
I1114 13:46:00.316692  1019 layer_factory.hpp:77] Creating layer Concat7
I1114 13:46:00.316706  1019 net.cpp:93] Creating Layer Concat7
I1114 13:46:00.316721  1019 net.cpp:436] Concat7 <- blob54_ReLU22_0_split_1
I1114 13:46:00.316733  1019 net.cpp:436] Concat7 <- blob59
I1114 13:46:00.316746  1019 net.cpp:436] Concat7 <- blob60
I1114 13:46:00.316761  1019 net.cpp:410] Concat7 -> blob61
I1114 13:46:00.316819  1019 net.cpp:145] Setting up Concat7
I1114 13:46:00.316836  1019 net.cpp:152] Top shape: 1 386 12 24 (111168)
I1114 13:46:00.316845  1019 net.cpp:160] Memory required for data: 326634356
I1114 13:46:00.316856  1019 net.cpp:184] DEBUG: need_backward = 1
I1114 13:46:00.316869  1019 layer_factory.hpp:77] Creating layer blob61_Concat7_0_split
I1114 13:46:00.316884  1019 net.cpp:93] Creating Layer blob61_Concat7_0_split
I1114 13:46:00.316895  1019 net.cpp:436] blob61_Concat7_0_split <- blob61
I1114 13:46:00.316910  1019 net.cpp:410] blob61_Concat7_0_split -> blob61_Concat7_0_split_0
I1114 13:46:00.316928  1019 net.cpp:410] blob61_Concat7_0_split -> blob61_Concat7_0_split_1
I1114 13:46:00.317004  1019 net.cpp:145] Setting up blob61_Concat7_0_split
I1114 13:46:00.317023  1019 net.cpp:152] Top shape: 1 386 12 24 (111168)
I1114 13:46:00.317034  1019 net.cpp:152] Top shape: 1 386 12 24 (111168)
I1114 13:46:00.317042  1019 net.cpp:160] Memory required for data: 327523700
I1114 13:46:00.317076  1019 net.cpp:184] DEBUG: need_backward = 1
I1114 13:46:00.317090  1019 layer_factory.hpp:77] Creating layer net2_predict_conv5
I1114 13:46:00.317112  1019 net.cpp:93] Creating Layer net2_predict_conv5
I1114 13:46:00.317124  1019 net.cpp:436] net2_predict_conv5 <- blob61_Concat7_0_split_0
I1114 13:46:00.317142  1019 net.cpp:410] net2_predict_conv5 -> blob62
I1114 13:46:00.319350  1019 net.cpp:145] Setting up net2_predict_conv5
I1114 13:46:00.319368  1019 net.cpp:152] Top shape: 1 2 12 24 (576)
I1114 13:46:00.319378  1019 net.cpp:160] Memory required for data: 327526004
I1114 13:46:00.319397  1019 net.cpp:184] DEBUG: need_backward = 1
I1114 13:46:00.319409  1019 layer_factory.hpp:77] Creating layer blob62_net2_predict_conv5_0_split
I1114 13:46:00.319422  1019 net.cpp:93] Creating Layer blob62_net2_predict_conv5_0_split
I1114 13:46:00.319433  1019 net.cpp:436] blob62_net2_predict_conv5_0_split <- blob62
I1114 13:46:00.319449  1019 net.cpp:410] blob62_net2_predict_conv5_0_split -> blob62_net2_predict_conv5_0_split_0
I1114 13:46:00.319468  1019 net.cpp:410] blob62_net2_predict_conv5_0_split -> blob62_net2_predict_conv5_0_split_1
I1114 13:46:00.319502  1019 net.cpp:410] blob62_net2_predict_conv5_0_split -> blob62_net2_predict_conv5_0_split_2
I1114 13:46:00.319603  1019 net.cpp:145] Setting up blob62_net2_predict_conv5_0_split
I1114 13:46:00.319622  1019 net.cpp:152] Top shape: 1 2 12 24 (576)
I1114 13:46:00.319633  1019 net.cpp:152] Top shape: 1 2 12 24 (576)
I1114 13:46:00.319648  1019 net.cpp:152] Top shape: 1 2 12 24 (576)
I1114 13:46:00.319658  1019 net.cpp:160] Memory required for data: 327532916
I1114 13:46:00.319669  1019 net.cpp:184] DEBUG: need_backward = 1
I1114 13:46:00.319680  1019 layer_factory.hpp:77] Creating layer Downsample2
I1114 13:46:00.319695  1019 net.cpp:93] Creating Layer Downsample2
I1114 13:46:00.319708  1019 net.cpp:436] Downsample2 <- blob46_Eltwise7_0_split_1
I1114 13:46:00.319722  1019 net.cpp:436] Downsample2 <- blob62_net2_predict_conv5_0_split_0
I1114 13:46:00.319738  1019 net.cpp:410] Downsample2 -> blob63
W1114 13:46:00.319756  1019 downsample_layer.cpp:25] DownsampleLayer only runs Reshape on setup
I1114 13:46:00.319838  1019 net.cpp:145] Setting up Downsample2
I1114 13:46:00.319855  1019 net.cpp:152] Top shape: 1 2 12 24 (576)
I1114 13:46:00.319867  1019 net.cpp:160] Memory required for data: 327535220
I1114 13:46:00.319880  1019 net.cpp:184] DEBUG: need_backward = 0
I1114 13:46:00.319890  1019 layer_factory.hpp:77] Creating layer net2_flow_loss5
I1114 13:46:00.319907  1019 net.cpp:93] Creating Layer net2_flow_loss5
I1114 13:46:00.319919  1019 net.cpp:436] net2_flow_loss5 <- blob62_net2_predict_conv5_0_split_1
I1114 13:46:00.319931  1019 net.cpp:436] net2_flow_loss5 <- blob63
I1114 13:46:00.319947  1019 net.cpp:410] net2_flow_loss5 -> net2_flow_loss5
I1114 13:46:00.320582  1019 net.cpp:145] Setting up net2_flow_loss5
I1114 13:46:00.320600  1019 net.cpp:152] Top shape: (1)
I1114 13:46:00.320610  1019 net.cpp:155]     with loss weight 0.08
I1114 13:46:00.320629  1019 net.cpp:160] Memory required for data: 327535224
I1114 13:46:00.320641  1019 net.cpp:184] DEBUG: need_backward = 1
I1114 13:46:00.320652  1019 layer_factory.hpp:77] Creating layer net2_deconv4
I1114 13:46:00.320670  1019 net.cpp:93] Creating Layer net2_deconv4
I1114 13:46:00.320683  1019 net.cpp:436] net2_deconv4 <- blob61_Concat7_0_split_1
I1114 13:46:00.320699  1019 net.cpp:410] net2_deconv4 -> blob64
I1114 13:46:00.343971  1019 net.cpp:145] Setting up net2_deconv4
I1114 13:46:00.343993  1019 net.cpp:152] Top shape: 1 96 24 48 (110592)
I1114 13:46:00.344003  1019 net.cpp:160] Memory required for data: 327977592
I1114 13:46:00.344018  1019 net.cpp:184] DEBUG: need_backward = 1
I1114 13:46:00.344032  1019 layer_factory.hpp:77] Creating layer ReLU26
I1114 13:46:00.344046  1019 net.cpp:93] Creating Layer ReLU26
I1114 13:46:00.344060  1019 net.cpp:436] ReLU26 <- blob64
I1114 13:46:00.344074  1019 net.cpp:397] ReLU26 -> blob64 (in-place)
I1114 13:46:00.344359  1019 net.cpp:145] Setting up ReLU26
I1114 13:46:00.344377  1019 net.cpp:152] Top shape: 1 96 24 48 (110592)
I1114 13:46:00.344388  1019 net.cpp:160] Memory required for data: 328419960
I1114 13:46:00.344395  1019 net.cpp:184] DEBUG: need_backward = 1
I1114 13:46:00.344414  1019 layer_factory.hpp:77] Creating layer net2_net2_upsample_flow5to4
I1114 13:46:00.344432  1019 net.cpp:93] Creating Layer net2_net2_upsample_flow5to4
I1114 13:46:00.344445  1019 net.cpp:436] net2_net2_upsample_flow5to4 <- blob62_net2_predict_conv5_0_split_2
I1114 13:46:00.344461  1019 net.cpp:410] net2_net2_upsample_flow5to4 -> blob65
I1114 13:46:00.344897  1019 net.cpp:145] Setting up net2_net2_upsample_flow5to4
I1114 13:46:00.344916  1019 net.cpp:152] Top shape: 1 2 24 48 (2304)
I1114 13:46:00.344925  1019 net.cpp:160] Memory required for data: 328429176
I1114 13:46:00.344943  1019 net.cpp:184] DEBUG: need_backward = 1
I1114 13:46:00.344954  1019 layer_factory.hpp:77] Creating layer Concat8
I1114 13:46:00.344969  1019 net.cpp:93] Creating Layer Concat8
I1114 13:46:00.344981  1019 net.cpp:436] Concat8 <- blob52_ReLU20_0_split_1
I1114 13:46:00.344995  1019 net.cpp:436] Concat8 <- blob64
I1114 13:46:00.345010  1019 net.cpp:436] Concat8 <- blob65
I1114 13:46:00.345022  1019 net.cpp:410] Concat8 -> blob66
I1114 13:46:00.345080  1019 net.cpp:145] Setting up Concat8
I1114 13:46:00.345098  1019 net.cpp:152] Top shape: 1 290 24 48 (334080)
I1114 13:46:00.345106  1019 net.cpp:160] Memory required for data: 329765496
I1114 13:46:00.345118  1019 net.cpp:184] DEBUG: need_backward = 1
I1114 13:46:00.345129  1019 layer_factory.hpp:77] Creating layer blob66_Concat8_0_split
I1114 13:46:00.345144  1019 net.cpp:93] Creating Layer blob66_Concat8_0_split
I1114 13:46:00.345155  1019 net.cpp:436] blob66_Concat8_0_split <- blob66
I1114 13:46:00.345170  1019 net.cpp:410] blob66_Concat8_0_split -> blob66_Concat8_0_split_0
I1114 13:46:00.345190  1019 net.cpp:410] blob66_Concat8_0_split -> blob66_Concat8_0_split_1
I1114 13:46:00.345280  1019 net.cpp:145] Setting up blob66_Concat8_0_split
I1114 13:46:00.345299  1019 net.cpp:152] Top shape: 1 290 24 48 (334080)
I1114 13:46:00.345310  1019 net.cpp:152] Top shape: 1 290 24 48 (334080)
I1114 13:46:00.345320  1019 net.cpp:160] Memory required for data: 332438136
I1114 13:46:00.345329  1019 net.cpp:184] DEBUG: need_backward = 1
I1114 13:46:00.345341  1019 layer_factory.hpp:77] Creating layer net2_predict_conv4
I1114 13:46:00.345361  1019 net.cpp:93] Creating Layer net2_predict_conv4
I1114 13:46:00.345372  1019 net.cpp:436] net2_predict_conv4 <- blob66_Concat8_0_split_0
I1114 13:46:00.345391  1019 net.cpp:410] net2_predict_conv4 -> blob67
I1114 13:46:00.347178  1019 net.cpp:145] Setting up net2_predict_conv4
I1114 13:46:00.347198  1019 net.cpp:152] Top shape: 1 2 24 48 (2304)
I1114 13:46:00.347208  1019 net.cpp:160] Memory required for data: 332447352
I1114 13:46:00.347223  1019 net.cpp:184] DEBUG: need_backward = 1
I1114 13:46:00.347234  1019 layer_factory.hpp:77] Creating layer blob67_net2_predict_conv4_0_split
I1114 13:46:00.347249  1019 net.cpp:93] Creating Layer blob67_net2_predict_conv4_0_split
I1114 13:46:00.347260  1019 net.cpp:436] blob67_net2_predict_conv4_0_split <- blob67
I1114 13:46:00.347276  1019 net.cpp:410] blob67_net2_predict_conv4_0_split -> blob67_net2_predict_conv4_0_split_0
I1114 13:46:00.347295  1019 net.cpp:410] blob67_net2_predict_conv4_0_split -> blob67_net2_predict_conv4_0_split_1
I1114 13:46:00.347313  1019 net.cpp:410] blob67_net2_predict_conv4_0_split -> blob67_net2_predict_conv4_0_split_2
I1114 13:46:00.347419  1019 net.cpp:145] Setting up blob67_net2_predict_conv4_0_split
I1114 13:46:00.347435  1019 net.cpp:152] Top shape: 1 2 24 48 (2304)
I1114 13:46:00.347447  1019 net.cpp:152] Top shape: 1 2 24 48 (2304)
I1114 13:46:00.347461  1019 net.cpp:152] Top shape: 1 2 24 48 (2304)
I1114 13:46:00.347472  1019 net.cpp:160] Memory required for data: 332475000
I1114 13:46:00.347482  1019 net.cpp:184] DEBUG: need_backward = 1
I1114 13:46:00.347491  1019 layer_factory.hpp:77] Creating layer Downsample3
I1114 13:46:00.347522  1019 net.cpp:93] Creating Layer Downsample3
I1114 13:46:00.347537  1019 net.cpp:436] Downsample3 <- blob46_Eltwise7_0_split_2
I1114 13:46:00.347553  1019 net.cpp:436] Downsample3 <- blob67_net2_predict_conv4_0_split_0
I1114 13:46:00.347568  1019 net.cpp:410] Downsample3 -> blob68
W1114 13:46:00.347586  1019 downsample_layer.cpp:25] DownsampleLayer only runs Reshape on setup
I1114 13:46:00.347661  1019 net.cpp:145] Setting up Downsample3
I1114 13:46:00.347677  1019 net.cpp:152] Top shape: 1 2 24 48 (2304)
I1114 13:46:00.347685  1019 net.cpp:160] Memory required for data: 332484216
I1114 13:46:00.347697  1019 net.cpp:184] DEBUG: need_backward = 0
I1114 13:46:00.347707  1019 layer_factory.hpp:77] Creating layer net2_flow_loss4
I1114 13:46:00.347721  1019 net.cpp:93] Creating Layer net2_flow_loss4
I1114 13:46:00.347733  1019 net.cpp:436] net2_flow_loss4 <- blob67_net2_predict_conv4_0_split_1
I1114 13:46:00.347746  1019 net.cpp:436] net2_flow_loss4 <- blob68
I1114 13:46:00.347762  1019 net.cpp:410] net2_flow_loss4 -> net2_flow_loss4
I1114 13:46:00.348400  1019 net.cpp:145] Setting up net2_flow_loss4
I1114 13:46:00.348418  1019 net.cpp:152] Top shape: (1)
I1114 13:46:00.348428  1019 net.cpp:155]     with loss weight 0.02
I1114 13:46:00.348445  1019 net.cpp:160] Memory required for data: 332484220
I1114 13:46:00.348457  1019 net.cpp:184] DEBUG: need_backward = 1
I1114 13:46:00.348469  1019 layer_factory.hpp:77] Creating layer net2_deconv3
I1114 13:46:00.348487  1019 net.cpp:93] Creating Layer net2_deconv3
I1114 13:46:00.348500  1019 net.cpp:436] net2_deconv3 <- blob66_Concat8_0_split_1
I1114 13:46:00.348516  1019 net.cpp:410] net2_deconv3 -> blob69
I1114 13:46:00.358129  1019 net.cpp:145] Setting up net2_deconv3
I1114 13:46:00.358151  1019 net.cpp:152] Top shape: 1 48 48 96 (221184)
I1114 13:46:00.358161  1019 net.cpp:160] Memory required for data: 333368956
I1114 13:46:00.358176  1019 net.cpp:184] DEBUG: need_backward = 1
I1114 13:46:00.358191  1019 layer_factory.hpp:77] Creating layer ReLU27
I1114 13:46:00.358204  1019 net.cpp:93] Creating Layer ReLU27
I1114 13:46:00.358219  1019 net.cpp:436] ReLU27 <- blob69
I1114 13:46:00.358232  1019 net.cpp:397] ReLU27 -> blob69 (in-place)
I1114 13:46:00.358492  1019 net.cpp:145] Setting up ReLU27
I1114 13:46:00.358511  1019 net.cpp:152] Top shape: 1 48 48 96 (221184)
I1114 13:46:00.358520  1019 net.cpp:160] Memory required for data: 334253692
I1114 13:46:00.358532  1019 net.cpp:184] DEBUG: need_backward = 1
I1114 13:46:00.358543  1019 layer_factory.hpp:77] Creating layer net2_net2_upsample_flow4to3
I1114 13:46:00.358578  1019 net.cpp:93] Creating Layer net2_net2_upsample_flow4to3
I1114 13:46:00.358592  1019 net.cpp:436] net2_net2_upsample_flow4to3 <- blob67_net2_predict_conv4_0_split_2
I1114 13:46:00.358608  1019 net.cpp:410] net2_net2_upsample_flow4to3 -> blob70
I1114 13:46:00.359050  1019 net.cpp:145] Setting up net2_net2_upsample_flow4to3
I1114 13:46:00.359067  1019 net.cpp:152] Top shape: 1 2 48 96 (9216)
I1114 13:46:00.359076  1019 net.cpp:160] Memory required for data: 334290556
I1114 13:46:00.359094  1019 net.cpp:184] DEBUG: need_backward = 1
I1114 13:46:00.359107  1019 layer_factory.hpp:77] Creating layer Concat9
I1114 13:46:00.359122  1019 net.cpp:93] Creating Layer Concat9
I1114 13:46:00.359134  1019 net.cpp:436] Concat9 <- blob50_ReLU18_0_split_1
I1114 13:46:00.359148  1019 net.cpp:436] Concat9 <- blob69
I1114 13:46:00.359161  1019 net.cpp:436] Concat9 <- blob70
I1114 13:46:00.359177  1019 net.cpp:410] Concat9 -> blob71
I1114 13:46:00.359235  1019 net.cpp:145] Setting up Concat9
I1114 13:46:00.359251  1019 net.cpp:152] Top shape: 1 146 48 96 (672768)
I1114 13:46:00.359259  1019 net.cpp:160] Memory required for data: 336981628
I1114 13:46:00.359271  1019 net.cpp:184] DEBUG: need_backward = 1
I1114 13:46:00.359279  1019 layer_factory.hpp:77] Creating layer blob71_Concat9_0_split
I1114 13:46:00.359293  1019 net.cpp:93] Creating Layer blob71_Concat9_0_split
I1114 13:46:00.359304  1019 net.cpp:436] blob71_Concat9_0_split <- blob71
I1114 13:46:00.359320  1019 net.cpp:410] blob71_Concat9_0_split -> blob71_Concat9_0_split_0
I1114 13:46:00.359360  1019 net.cpp:410] blob71_Concat9_0_split -> blob71_Concat9_0_split_1
I1114 13:46:00.359441  1019 net.cpp:145] Setting up blob71_Concat9_0_split
I1114 13:46:00.359459  1019 net.cpp:152] Top shape: 1 146 48 96 (672768)
I1114 13:46:00.359470  1019 net.cpp:152] Top shape: 1 146 48 96 (672768)
I1114 13:46:00.359482  1019 net.cpp:160] Memory required for data: 342363772
I1114 13:46:00.359490  1019 net.cpp:184] DEBUG: need_backward = 1
I1114 13:46:00.359499  1019 layer_factory.hpp:77] Creating layer net2_predict_conv3
I1114 13:46:00.359520  1019 net.cpp:93] Creating Layer net2_predict_conv3
I1114 13:46:00.359531  1019 net.cpp:436] net2_predict_conv3 <- blob71_Concat9_0_split_0
I1114 13:46:00.359549  1019 net.cpp:410] net2_predict_conv3 -> blob72
I1114 13:46:00.361260  1019 net.cpp:145] Setting up net2_predict_conv3
I1114 13:46:00.361280  1019 net.cpp:152] Top shape: 1 2 48 96 (9216)
I1114 13:46:00.361290  1019 net.cpp:160] Memory required for data: 342400636
I1114 13:46:00.361305  1019 net.cpp:184] DEBUG: need_backward = 1
I1114 13:46:00.361316  1019 layer_factory.hpp:77] Creating layer blob72_net2_predict_conv3_0_split
I1114 13:46:00.361330  1019 net.cpp:93] Creating Layer blob72_net2_predict_conv3_0_split
I1114 13:46:00.361342  1019 net.cpp:436] blob72_net2_predict_conv3_0_split <- blob72
I1114 13:46:00.361359  1019 net.cpp:410] blob72_net2_predict_conv3_0_split -> blob72_net2_predict_conv3_0_split_0
I1114 13:46:00.361379  1019 net.cpp:410] blob72_net2_predict_conv3_0_split -> blob72_net2_predict_conv3_0_split_1
I1114 13:46:00.361399  1019 net.cpp:410] blob72_net2_predict_conv3_0_split -> blob72_net2_predict_conv3_0_split_2
I1114 13:46:00.361502  1019 net.cpp:145] Setting up blob72_net2_predict_conv3_0_split
I1114 13:46:00.361521  1019 net.cpp:152] Top shape: 1 2 48 96 (9216)
I1114 13:46:00.361531  1019 net.cpp:152] Top shape: 1 2 48 96 (9216)
I1114 13:46:00.361546  1019 net.cpp:152] Top shape: 1 2 48 96 (9216)
I1114 13:46:00.361558  1019 net.cpp:160] Memory required for data: 342511228
I1114 13:46:00.361568  1019 net.cpp:184] DEBUG: need_backward = 1
I1114 13:46:00.361580  1019 layer_factory.hpp:77] Creating layer Downsample4
I1114 13:46:00.361595  1019 net.cpp:93] Creating Layer Downsample4
I1114 13:46:00.361608  1019 net.cpp:436] Downsample4 <- blob46_Eltwise7_0_split_3
I1114 13:46:00.361621  1019 net.cpp:436] Downsample4 <- blob72_net2_predict_conv3_0_split_0
I1114 13:46:00.361637  1019 net.cpp:410] Downsample4 -> blob73
W1114 13:46:00.361655  1019 downsample_layer.cpp:25] DownsampleLayer only runs Reshape on setup
I1114 13:46:00.361742  1019 net.cpp:145] Setting up Downsample4
I1114 13:46:00.361758  1019 net.cpp:152] Top shape: 1 2 48 96 (9216)
I1114 13:46:00.361768  1019 net.cpp:160] Memory required for data: 342548092
I1114 13:46:00.361778  1019 net.cpp:184] DEBUG: need_backward = 0
I1114 13:46:00.361789  1019 layer_factory.hpp:77] Creating layer net2_flow_loss3
I1114 13:46:00.361807  1019 net.cpp:93] Creating Layer net2_flow_loss3
I1114 13:46:00.361819  1019 net.cpp:436] net2_flow_loss3 <- blob72_net2_predict_conv3_0_split_1
I1114 13:46:00.361834  1019 net.cpp:436] net2_flow_loss3 <- blob73
I1114 13:46:00.361850  1019 net.cpp:410] net2_flow_loss3 -> net2_flow_loss3
I1114 13:46:00.362488  1019 net.cpp:145] Setting up net2_flow_loss3
I1114 13:46:00.362507  1019 net.cpp:152] Top shape: (1)
I1114 13:46:00.362516  1019 net.cpp:155]     with loss weight 0.01
I1114 13:46:00.362535  1019 net.cpp:160] Memory required for data: 342548096
I1114 13:46:00.362547  1019 net.cpp:184] DEBUG: need_backward = 1
I1114 13:46:00.362560  1019 layer_factory.hpp:77] Creating layer net2_deconv2
I1114 13:46:00.362577  1019 net.cpp:93] Creating Layer net2_deconv2
I1114 13:46:00.362589  1019 net.cpp:436] net2_deconv2 <- blob71_Concat9_0_split_1
I1114 13:46:00.362604  1019 net.cpp:410] net2_deconv2 -> blob74
I1114 13:46:00.365123  1019 net.cpp:145] Setting up net2_deconv2
I1114 13:46:00.365142  1019 net.cpp:152] Top shape: 1 24 96 192 (442368)
I1114 13:46:00.365151  1019 net.cpp:160] Memory required for data: 344317568
I1114 13:46:00.365187  1019 net.cpp:184] DEBUG: need_backward = 1
I1114 13:46:00.365200  1019 layer_factory.hpp:77] Creating layer ReLU28
I1114 13:46:00.365213  1019 net.cpp:93] Creating Layer ReLU28
I1114 13:46:00.365226  1019 net.cpp:436] ReLU28 <- blob74
I1114 13:46:00.365242  1019 net.cpp:397] ReLU28 -> blob74 (in-place)
I1114 13:46:00.365483  1019 net.cpp:145] Setting up ReLU28
I1114 13:46:00.365500  1019 net.cpp:152] Top shape: 1 24 96 192 (442368)
I1114 13:46:00.365510  1019 net.cpp:160] Memory required for data: 346087040
I1114 13:46:00.365521  1019 net.cpp:184] DEBUG: need_backward = 1
I1114 13:46:00.365533  1019 layer_factory.hpp:77] Creating layer net2_net2_upsample_flow3to2
I1114 13:46:00.365550  1019 net.cpp:93] Creating Layer net2_net2_upsample_flow3to2
I1114 13:46:00.365563  1019 net.cpp:436] net2_net2_upsample_flow3to2 <- blob72_net2_predict_conv3_0_split_2
I1114 13:46:00.365582  1019 net.cpp:410] net2_net2_upsample_flow3to2 -> blob75
I1114 13:46:00.366034  1019 net.cpp:145] Setting up net2_net2_upsample_flow3to2
I1114 13:46:00.366053  1019 net.cpp:152] Top shape: 1 2 96 192 (36864)
I1114 13:46:00.366062  1019 net.cpp:160] Memory required for data: 346234496
I1114 13:46:00.366080  1019 net.cpp:184] DEBUG: need_backward = 1
I1114 13:46:00.366091  1019 layer_factory.hpp:77] Creating layer Concat10
I1114 13:46:00.366106  1019 net.cpp:93] Creating Layer Concat10
I1114 13:46:00.366118  1019 net.cpp:436] Concat10 <- blob48_ReLU16_0_split_1
I1114 13:46:00.366132  1019 net.cpp:436] Concat10 <- blob74
I1114 13:46:00.366145  1019 net.cpp:436] Concat10 <- blob75
I1114 13:46:00.366160  1019 net.cpp:410] Concat10 -> blob76
I1114 13:46:00.366219  1019 net.cpp:145] Setting up Concat10
I1114 13:46:00.366236  1019 net.cpp:152] Top shape: 1 74 96 192 (1363968)
I1114 13:46:00.366245  1019 net.cpp:160] Memory required for data: 351690368
I1114 13:46:00.366255  1019 net.cpp:184] DEBUG: need_backward = 1
I1114 13:46:00.366267  1019 layer_factory.hpp:77] Creating layer net2_predict_conv2
I1114 13:46:00.366287  1019 net.cpp:93] Creating Layer net2_predict_conv2
I1114 13:46:00.366298  1019 net.cpp:436] net2_predict_conv2 <- blob76
I1114 13:46:00.366317  1019 net.cpp:410] net2_predict_conv2 -> blob77
I1114 13:46:00.367991  1019 net.cpp:145] Setting up net2_predict_conv2
I1114 13:46:00.368011  1019 net.cpp:152] Top shape: 1 2 96 192 (36864)
I1114 13:46:00.368021  1019 net.cpp:160] Memory required for data: 351837824
I1114 13:46:00.368039  1019 net.cpp:184] DEBUG: need_backward = 1
I1114 13:46:00.368052  1019 layer_factory.hpp:77] Creating layer blob77_net2_predict_conv2_0_split
I1114 13:46:00.368067  1019 net.cpp:93] Creating Layer blob77_net2_predict_conv2_0_split
I1114 13:46:00.368079  1019 net.cpp:436] blob77_net2_predict_conv2_0_split <- blob77
I1114 13:46:00.368094  1019 net.cpp:410] blob77_net2_predict_conv2_0_split -> blob77_net2_predict_conv2_0_split_0
I1114 13:46:00.368113  1019 net.cpp:410] blob77_net2_predict_conv2_0_split -> blob77_net2_predict_conv2_0_split_1
I1114 13:46:00.368131  1019 net.cpp:410] blob77_net2_predict_conv2_0_split -> blob77_net2_predict_conv2_0_split_2
I1114 13:46:00.368242  1019 net.cpp:145] Setting up blob77_net2_predict_conv2_0_split
I1114 13:46:00.368259  1019 net.cpp:152] Top shape: 1 2 96 192 (36864)
I1114 13:46:00.368271  1019 net.cpp:152] Top shape: 1 2 96 192 (36864)
I1114 13:46:00.368284  1019 net.cpp:152] Top shape: 1 2 96 192 (36864)
I1114 13:46:00.368296  1019 net.cpp:160] Memory required for data: 352280192
I1114 13:46:00.368307  1019 net.cpp:184] DEBUG: need_backward = 1
I1114 13:46:00.368319  1019 layer_factory.hpp:77] Creating layer Downsample5
I1114 13:46:00.368333  1019 net.cpp:93] Creating Layer Downsample5
I1114 13:46:00.368345  1019 net.cpp:436] Downsample5 <- blob46_Eltwise7_0_split_4
I1114 13:46:00.368360  1019 net.cpp:436] Downsample5 <- blob77_net2_predict_conv2_0_split_0
I1114 13:46:00.368376  1019 net.cpp:410] Downsample5 -> blob78
W1114 13:46:00.368391  1019 downsample_layer.cpp:25] DownsampleLayer only runs Reshape on setup
I1114 13:46:00.368482  1019 net.cpp:145] Setting up Downsample5
I1114 13:46:00.368499  1019 net.cpp:152] Top shape: 1 2 96 192 (36864)
I1114 13:46:00.368508  1019 net.cpp:160] Memory required for data: 352427648
I1114 13:46:00.368520  1019 net.cpp:184] DEBUG: need_backward = 0
I1114 13:46:00.368528  1019 layer_factory.hpp:77] Creating layer net2_flow_loss2
I1114 13:46:00.368543  1019 net.cpp:93] Creating Layer net2_flow_loss2
I1114 13:46:00.368554  1019 net.cpp:436] net2_flow_loss2 <- blob77_net2_predict_conv2_0_split_1
I1114 13:46:00.368566  1019 net.cpp:436] net2_flow_loss2 <- blob78
I1114 13:46:00.368582  1019 net.cpp:410] net2_flow_loss2 -> net2_flow_loss2
I1114 13:46:00.369279  1019 net.cpp:145] Setting up net2_flow_loss2
I1114 13:46:00.369297  1019 net.cpp:152] Top shape: (1)
I1114 13:46:00.369307  1019 net.cpp:155]     with loss weight 0.005
I1114 13:46:00.369323  1019 net.cpp:160] Memory required for data: 352427652
I1114 13:46:00.369333  1019 net.cpp:184] DEBUG: need_backward = 1
I1114 13:46:00.369343  1019 layer_factory.hpp:77] Creating layer Eltwise8
I1114 13:46:00.369359  1019 net.cpp:93] Creating Layer Eltwise8
I1114 13:46:00.369371  1019 net.cpp:436] Eltwise8 <- blob77_net2_predict_conv2_0_split_2
I1114 13:46:00.369386  1019 net.cpp:410] Eltwise8 -> blob79
I1114 13:46:00.369443  1019 net.cpp:145] Setting up Eltwise8
I1114 13:46:00.369460  1019 net.cpp:152] Top shape: 1 2 96 192 (36864)
I1114 13:46:00.369469  1019 net.cpp:160] Memory required for data: 352575108
I1114 13:46:00.369479  1019 net.cpp:184] DEBUG: need_backward = 1
I1114 13:46:00.369491  1019 layer_factory.hpp:77] Creating layer Silence1
I1114 13:46:00.369505  1019 net.cpp:93] Creating Layer Silence1
I1114 13:46:00.369518  1019 net.cpp:436] Silence1 <- blob0_CustomData2_0_split_1
I1114 13:46:00.369532  1019 net.cpp:145] Setting up Silence1
…
